neural networks/trained/best_model_RHAS_conv2d_weights_2000_final.pth (torch, 789866 bytes, 36 tensors)

module.conv2d1.0.weight f4 [16, 1, 4, 1]
000000 ff 5d 9a be b4 4b 91 3e 85 cd 1a 3c 7c 7d 03 be
       -0.30149838 0.2837807 0.009448414 -0.12840837
000010 c1 ef 1b bf 81 fd 02 be 89 09 58 3e 27 04 0a 3e
       -0.6091271 -0.12792017 0.21097387 0.13478146
000020 92 3f 95 be c2 b3 19 be ce 49 03 3f 79 91 25 be
       -0.29150063 -0.15009978 0.5128449 -0.16168775
000030 a2 37 bf 3e c9 29 55 3e 84 64 08 bf 49 9d 13 bd
       0.37347132 0.20816721 -0.53278375 -0.03603867
000040 83 12 fe be b2 f3 ec 3e 52 55 9a be ef 54 c5 3e
       -0.49623498 0.46279675 -0.3014322 0.38541362
000050 7a 98 8f be 8c 2a f1 3e 52 70 a1 bd 61 e8 49 3e
       -0.28046018 0.47102773 -0.078827515 0.19717552
000060 f6 45 e8 bd e5 11 ac 3e a8 54 e3 be c0 f6 54 3e
       -0.11341469 0.33607402 -0.44400525 0.20797253
000070 62 1c 5a 3e 58 c9 86 be 8d fc 5d bf 27 df c5 3d
       0.2129989 -0.26325488 -0.86713487 0.096617036
000080 ca af e5 be 9d 83 08 bf 63 a6 b2 3e fe 96 9f 3c
       -0.4486068 -0.53325826 0.34892568 0.019481178
000090 b4 57 5c 3e 08 cb 37 be d6 3e 16 bf e4 54 d8 be
       0.21517831 -0.17948544 -0.5868963 -0.42252266
0000a0 7f 78 80 be db 0b 3f 3e d7 e6 f2 be 27 1a 1b 3e
       -0.2509193 0.18656866 -0.47441742 0.15146695
0000b0 ae 8d c0 be 31 6e 55 be dc 7d b0 3e 40 f7 65 3e
       -0.37608093 -0.20842816 0.34471023 0.224576
0000c0 04 50 50 be 08 74 d3 be 5e a6 b7 3d bd 2d fc 3e
       -0.20343024 -0.41299462 0.08967279 0.49253646
0000d0 70 59 c1 3e 3f 08 99 be 13 61 38 39 0f 8c 4f be
       0.37763548 -0.29889104 0.0001758377 -0.20268272
0000e0 a0 e1 e3 3e 41 a6 a9 be 9f 78 25 bf f9 4b aa 3d
       0.44508076 -0.33134654 -0.6463718 0.08315272
0000f0 14 7f 2d 3e a0 05 95 3c b1 a8 23 be ed a0 2f bf
       0.16943008 0.018191159 -0.1598232 -0.6860493

module.conv2d1.0.bias f4 [16]
000000 38 22 2a 3e 21 26 b4 3b c8 77 c9 be 83 50 9c 3e
       0.16614616 0.0054977094 -0.39349198 0.30530176
000010 aa 5c 1d 3d b1 f8 e6 3c 35 0b 48 bd 8d 9f 8a bd
       0.03841845 0.028194757 -0.048838813 -0.06768713
000020 50 59 8a 3d 85 a1 4f be b5 8c c7 3e 0a c0 d4 3d
       0.06755316 -0.20276459 0.38974538 0.10388191
000030 d2 a7 bb be 63 2d 1c bc 4a 01 50 3d 99 58 a8 3e
       -0.36651474 -0.009532305 0.05078248 0.32880095

module.conv2d1.1.weight f4 [16]
000000 b1 80 2c 3f 9b c3 77 3f fc d6 7b 3f b7 95 61 3f
       0.6738387 0.96782845 0.98374915 0.8811907
000010 74 a1 9e 3f 66 02 3d 3f 64 ce 85 3f 8a 0e 23 3f
       1.2393022 0.73831785 1.045361 0.6369406
000020 24 a8 33 3f d8 7b 1d 3f 7b 7e 51 3f b7 34 ba 3f
       0.7017844 0.61517096 0.8183362 1.4547337
000030 a5 1c a1 3f 5e 78 80 3f 51 54 34 3f 1e 82 4f 3f
       1.2586867 1.0036733 0.70441157 0.8105792

module.conv2d1.1.bias f4 [16]
000000 df 43 9d be fa 16 8b be 9e d5 9f 3c 7a e0 9c 3d
       -0.30715844 -0.27165967 0.01951104 0.07660003
000010 a8 b1 5f 3d 2e 29 07 be 9c 3d 50 3d 49 05 02 bf
       0.054612786 -0.13199303 0.050840005 -0.50789315
000020 c2 f5 cb be d0 de ec be 3e 51 dc bd 8f f1 ce 3d
       -0.39835936 -0.46263742 -0.10757683 0.101046674
000030 1e 24 e2 3d b9 e3 d2 3d 9f cd dc be 9a 34 a3 be
       0.11042045 0.10297341 -0.43125626 -0.3187607

module.conv2d1.1.running_mean f4 [16]
000000 ca 37 c3 3d 5a 54 57 be 6a 3c df be 3b 82 95 3e
       0.09532125 -0.21028271 -0.4360078 0.2920092
000010 85 45 cb 3d eb 27 78 3e e7 6e 51 bd 7c 5e 1b bf
       0.09925369 0.24233977 -0.051131155 -0.60691047
000020 da 98 99 be cc b1 56 bf 4c e3 1e 3e 5e 7f ec 3d
       -0.2999943 -0.83865047 0.15516394 0.11547731
000030 5f 3d c1 be d1 cc e2 bd 86 ed 86 be b9 6d d2 bd
       -0.37742135 -0.11074222 -0.2635309 -0.10274834

module.conv2d1.1.running_var f4 [16]
000000 c7 56 08 3c 28 c6 d8 3d d8 87 f5 3c 80 8c 47 3d
       0.008321471 0.1058467 0.029972002 0.048717976
000010 67 59 c2 3c 62 dd 4c 3d b1 f4 92 3c 82 ae bc 3e
       0.023724271 0.050015815 0.017938944 0.3685189
000020 d7 12 6a 3e df 40 f0 3e 53 e0 a6 3d 7e 8d 5a 3d
       0.2285875 0.46924493 0.08148255 0.053357594
000030 85 01 b4 3d c0 12 7a 3c 86 19 0b 3e a2 79 82 3e
       0.08789352 0.015263259 0.13583955 0.25483423

module.conv2d2.0.weight f4 [32, 16, 4, 1]
000000 c0 db c5 bc 6a 6e 88 be 27 9a ce 3d e5 71 1b bd
       -0.024152637 -0.2664674 0.10087996 -0.037950415
000010 8a 23 d2 be 03 13 88 be 8c cd 70 bd 1e 3e e9 bd
       -0.4104274 -0.26577005 -0.058789775 -0.11388801
000020 3f ff b9 be a4 35 b0 bd b8 75 c5 bd d5 45 64 bd
       -0.3632755 -0.08603981 -0.09641594 -0.05573066
000030 f3 a3 49 3d 23 22 e6 be 68 53 ce bd fa 70 ba 3d
       0.04922862 -0.4494792 -0.10074502 0.0910358
000040 4d ac 42 3e 3c 4f df 3b d6 ed 68 bd 28 74 0f be
       0.1901104 0.0068148654 -0.056867443 -0.14009154
000050 2d 14 fd 3d f0 a7 42 3d 31 95 05 3e eb 21 6d bc
       0.12357364 0.04752344 0.13045193 -0.014473419
000060 87 6c 0f 3f 84 3b bc be 45 c0 91 bd f4 20 bb 3c
       0.56024975 -0.36764157 -0.07116751 0.022842862
000070 66 11 8c be de b2 30 be 6b 6e be bd 77 52 00 be
       -0.27357024 -0.17255732 -0.09298404 -0.12531458
000080 6e a8 6d be 49 dc ee bd af 38 05 3d ca 48 02 bd
       -0.23208782 -0.1166311 0.03252476 -0.0318077
000090 80 b1 83 3d be 22 e0 bd 51 3f f1 bd bd cb f3 bd
       0.0643034 -0.109441265 -0.11779655 -0.11904094
0000a0 8c 6b 36 bd e7 4b 4f be 83 fb 91 3d d5 a3 95 bd
       -0.04453616 -0.20243798 0.0712805 -0.07306639
0000b0 9c d9 51 be 28 df 57 be 75 34 67 be df 58 e6 be
       -0.20493168 -0.21081221 -0.22578605 -0.44989678
0000c0 23 7f 0f be 50 4f e7 bb 0f 3c 52 be 5d 36 02 bf
       -0.14013343 -0.0070590153 -0.20530723 -0.508642
0000d0 14 2b cf ba ec 9a 94 3d b2 19 71 bc ba 8e 9c 3d
       -0.0015805685 0.072561115 -0.014715599 0.076444104
0000e0 7d 6c 6f bd 2f 10 a4 bd 6b 4e 43 be 26 90 0f be
       -0.05845307 -0.08010899 -0.19072883 -0.14019832
0000f0 de 18 36 be 0c 77 12 be 3f 11 b9 bd 4c 39 0a be
       -0.17782924 -0.14303225 -0.090364926 -0.1349842
000100 33 11 25 be 85 aa f3 3c 26 13 4c 3d 24 3e 18 be
       -0.16119842 0.029744396 0.04982295 -0.14867455
000110 e5 fc eb bd 87 9a 3d be 3c a8 47 bd eb 48 1e 3d
       -0.11522845 -0.18515979 -0.048744425 0.03864376
000120 6c 3b 20 bd eb 70 83 bd 96 5a a3 bd d2 7c 07 3d
       -0.03911917 -0.06418022 -0.07976262 0.033078022
000130 4d 14 06 3e cc 1c 59 3d d5 b6 41 be 76 68 c4 3c
       0.13093682 0.05300598 -0.18917401 0.023975592
000140 99 1e 1b 3e 51 cf 72 3c d4 a8 83 3e 0f f1 12 3e
       0.15148391 0.014819936 0.25714743 0.14349769
000150 bb ef 15 3e 20 f0 25 bd 13 82 65 3e 14 2c ec 3d
       0.14642231 -0.040512204 0.224129 0.11531845
000160 2f 98 5d be 0e ee 5e be b6 e0 dc 3d ab bf 55 bc
       -0.21640085 -0.21770498 0.10785048 -0.0130461855
000170 68 d6 ae bb b8 a8 62 bc 02 af 7a 3e 70 b9 82 3e
       -0.005335618 -0.013834171 0.24480823 0.25532103
000180 e4 b9 d7 bd ed 47 0a 3d 25 e6 04 be 27 0a 1b 3e
       -0.10533503 0.03376 -0.12978418 0.15140592
000190 e7 5e f9 3b 46 6b d5 3d d4 2c 7a 3e b9 85 79 3d
       0.00761019 0.104208514 0.24431163 0.060918543
0001a0 28 fb 1d bd e8 c2 d0 3d e4 79 32 3e f3 3a 76 3e
       -0.0385696 0.101934254 0.1742931 0.24045925
0001b0 ab 2b b7 3d d2 27 ab bd 1c 8f 4c be 60 43 3b 3e
       0.08943876 -0.083572045 -0.19976467 0.1828742
0001c0 af da f8 bd 26 de 86 be c2 cf cd bd 0c 25 38 3e
       -0.121510856 -0.2634136 -0.10049392 0.17982882
0001d0 34 c3 af 3e ae 4c 2f 3e 5c 75 82 3e d3 d1 7b 3e
       0.34328616 0.17119095 0.25480163 0.2459176
0001e0 64 11 f3 3c e9 11 da 3a 22 57 a5 3e 65 1f be 3e
       0.029671378 0.0016637418 0.3229304 0.37133327
0001f0 8b 0a a6 3e 0b a1 ba 3e be dc 82 3e 64 a9 de 3d
       0.3242992 0.3645099 0.25559038 0.108721524
000200 28 73 3a be 94 95 66 3e 5d d7 45 3d 7d 6d 5b bc
       -0.18207991 0.22517997 0.04830109 -0.013392803
000210 b3 1f c0 be a9 f9 52 bd 7a a3 94 be 58 fe 77 bc
       -0.37524185 -0.051507626 -0.29030973 -0.015136324
000220 2c 2e 64 be 44 d5 c3 3d 6e c1 44 be 83 99 4b 3d
       -0.22283238 0.095621616 -0.19214413 0.049706947
000230 0f 4d f1 3e 8f 3c c3 bd 57 a1 63 be d4 2d 81 bc
       0.47129104 -0.09533035 -0.22229515 -0.015768923
000240 96 38 01 be 6c b7 30 bc a6 ab 69 3e 8c c8 04 be
       -0.12619242 -0.010785919 0.22819385 -0.12967128
000250 73 d3 e7 bd c0 af 80 bd 07 9e eb bc 98 f1 76 bd
       -0.113196276 -0.06283522 -0.028761877 -0.060288996
000260 4b 44 9e be 0f 5a e5 be c6 3a c9 3d 36 a9 cb 3d
       -0.30911478 -0.44795272 0.09825663 0.09944384
000270 99 f7 e4 bd 3c 68 cf bc 80 69 99 3d 40 27 9e 3d
       -0.11180038 -0.025318258 0.07490826 0.0772233
000280 50 7f 57 bd b0 59 71 b9 bc 05 0c be dc 99 d6 3d
       -0.05261165 -0.00023016962 -0.13674062 0.10478565
000290 22 67 a0 3d 20 1d ca 3d 70 02 3f bd 7c db 0c be
       0.07832171 0.098688364 -0.046633184 -0.13755602
0002a0 60 7c 87 bc 19 75 85 be b5 b7 bf 3d 29 46 10 be
       -0.016538799 -0.260659 0.09361211 -0.14089264
0002b0 65 72 e2 be 2a 8b d1 be 10 cb aa be e4 7e 1f 3d
       -0.442279 -0.40926486 -0.3335805 0.03893937
0002c0 4f 72 87 bd 8b d5 fe be f6 b6 45 be 9e 91 99 3e
       -0.066135995 -0.49772295 -0.19308075 0.2999391
0002d0 d2 63 c8 3e 1a 91 5b 3e 30 a8 04 3e 2a 1b 19 3d
       0.39138657 0.2144207 0.12954783 0.03737942
0002e0 89 59 e7 3d e4 9c d6 3d 84 dd 6f 3d 19 ec dd bc
       0.11296374 0.10479143 0.058560863 -0.02709012
0002f0 e3 87 23 3d 3c a9 cc 3d ce 0b ca 3d 86 12 d2 bc
       0.039924514 0.099932164 0.09865533 -0.025643598
000300 75 f9 ae 3e fd 69 b3 bd ca 8d 21 be 35 04 5b be
       0.34174696 -0.0876045 -0.15776744 -0.21388324
000310 bc 6f a0 3e e3 b4 3a 3e f5 bd ab 3d a9 5b ae bc
       0.31335247 0.18233065 0.08385841 -0.021283941
000320 92 ee ec 3d f4 58 17 3d b0 d9 39 be ab 3f 85 3d
       0.11568941 0.036950067 -0.18149447 0.06506284
000330 07 c1 0f bf 22 61 fb bd ff bb 93 3d e9 c0 ef 3d
       -0.5615391 -0.12274386 0.07213592 0.117067166
000340 ca 70 36 3e f1 c6 4b be d4 95 a5 bc 0c d6 db 39
       0.17816463 -0.19900109 -0.020213045 0.00041930412
000350 f8 18 21 3d 28 1e fe bd b5 49 30 bd 51 3f 48 3b
       0.039330453 -0.124080956 -0.043039043 0.0030555318
000360 c3 3e c7 3e 48 16 ab 3c 45 03 1b bc 96 3b 2c be
       0.3891507 0.020884648 -0.009461229 -0.16819605
000370 74 42 a7 3d d5 cb e5 bd f2 7d 74 be 41 62 b7 bd
       0.08166972 -0.112205185 -0.2387617 -0.08954287
000380 f6 6b 24 3e 35 20 6f 3d 85 de 2b bc 1e bb 15 3c
       0.16056809 0.058380324 -0.0104900645 0.0091388505
000390 ca 3f 7a 3d 4b e8 0b be f3 a1 26 be c5 49 0f be
       0.06109599 -0.13662831 -0.16272716 -0.13992985
0003a0 8c 09 82 3e 2a 68 b1 3d 64 14 d8 bd e0 3c 95 bd
       0.2539791 0.08662446 -0.10550764 -0.072870016
0003b0 3c 0a bd 3e d9 b1 10 be 5a 79 c6 3c 88 3e 0f 3f
       0.3692187 -0.14130343 0.024227787 0.5595479
0003c0 39 67 57 3d 27 ad 32 be 2c fa 0f 3e 22 7c 02 3f
       0.052588675 -0.17448865 0.14060277 0.5097066
0003d0 8c 2b 03 be c9 8d a6 3c 1a 3f 44 bd c8 53 61 be
       -0.1280958 0.02033128 -0.04791174 -0.22004616
0003e0 e2 50 44 bb 57 62 3f be 35 8a 5b bd d6 6f 26 bd
       -0.0029955436 -0.18689857 -0.0535986 -0.040634
0003f0 16 ff 9a bd 42 e6 e9 bd f9 25 89 bd f1 00 45 be
       -0.07568185 -0.11420871 -0.06696696 -0.1923864

module.conv2d2.0.bias f4 [32]
000000 93 c0 9e 3d 4d fd 7b bc 73 31 ff 3d 62 f0 af be
       0.07751574 -0.015380216 0.124606036 -0.34363085
000010 ac bb 97 3b a0 7a c2 3d ee a3 36 3d 99 84 41 3e
       0.0046305265 0.09496045 0.04458993 0.18898238
000020 e4 1f ab 3e 8a 45 39 3d ad 7c 47 be 95 e5 39 bb
       0.33422768 0.045232333 -0.19481154 -0.0028365601
000030 17 27 57 be 95 c4 09 be 97 08 46 3e 65 85 00 3e
       -0.21011005 -0.13453896 0.19339214 0.12550886
000040 ab 5a 66 be 6e 52 34 be 3b a3 b1 3e 79 d6 83 3d
       -0.22495525 -0.1760957 0.34694847 0.06437392
000050 25 ea 9a bd 93 f1 8c 3d bd 7d e2 bd ba 4b 37 be
       -0.07564191 0.06882014 -0.11059139 -0.17899981
000060 f7 60 6d be 3d 49 06 be 6a 60 a3 bd c9 53 d2 be
       -0.2318152 -0.13113876 -0.07977374 -0.41079548
000070 b3 59 2e be 92 c5 a8 3d b5 5f 51 be 20 49 37 3d
       -0.17026405 0.082408085 -0.20446666 0.04474747

module.conv2d2.1.weight f4 [32]
000000 d4 10 66 3f 4e 13 4d 3f 42 ed 8a 3f 28 98 9e 3f
       0.8986943 0.8010758 1.0853655 1.2390184
000010 21 64 51 3f c6 41 96 3f a8 c5 8a 3f 5a b2 94 3f
       0.8179341 1.1738822 1.084157 1.1616929
000020 96 e1 1e 3f be 25 98 3f df 00 74 3f 30 01 74 3f
       0.62062967 1.1886518 0.9531383 0.9531431
000030 2b 1e 6b 3f ff 63 75 3f 3f ae a4 3f ea f4 66 3f
       0.9184291 0.95855707 1.2865676 0.9021746
000040 b4 ed 8c 3f 54 26 78 3f fb 83 85 3f 8e 84 45 3f
       1.1010041 0.96933484 1.0430902 0.7715539
000050 ad 21 76 3f 33 9c 66 3f 65 df 69 3f 39 53 7f 3f
       0.96145135 0.9008209 0.913565 0.9973636
000060 70 f2 7b 3f 04 3d 5b 3f 1e 63 90 3f a0 99 6e 3f
       0.98416805 0.8563998 1.1280248 0.93203163
000070 1b c2 74 3f f3 9c 4e 3f ed a7 7c 3f 62 e5 22 3f
       0.9560868 0.80708236 0.98693734 0.6363126

module.conv2d2.1.bias f4 [32]
000000 b8 74 6e 3e 4b e9 e5 be 99 4d a7 be 5e b6 80 3e
       0.23286712 -0.4490455 -0.3267639 0.25139135
000010 79 be 43 3c df ec 47 be 4b db f6 bd 33 63 04 be
       0.011947268 -0.19523953 -0.120535456 -0.12928466
000020 13 cc 81 be 4e 7a 88 be 88 09 ad 3d cb ef ac be
       -0.2535101 -0.2665581 0.084490836 -0.33776698
000030 81 83 90 3c 83 17 fe be 6f 98 48 be e1 5c a0 be
       0.017640831 -0.49627313 -0.19589399 -0.3132086
000040 33 1c 80 be ec 68 e4 be f1 94 12 be 41 cd 79 bc
       -0.25021514 -0.446113 -0.14314629 -0.01524669
000050 de 5b a4 bc b6 07 e5 bd 36 9c 2d be b0 f4 49 be
       -0.020063337 -0.11183111 -0.16954121 -0.19722247
000060 f8 c8 e0 be e3 c7 4e be 31 d7 16 be 1d 23 a6 be
       -0.43903327 -0.20193438 -0.14730527 -0.32448664
000070 de 75 b5 be 37 f4 73 be bc af e7 be e9 57 6b be
       -0.35441488 -0.2382363 -0.45251262 -0.22982754

module.conv2d2.1.running_mean f4 [32]
000000 22 cc 8d bf c1 9e 49 3f b5 39 fe be f7 37 96 bd
       -1.1077921 0.78757864 -0.49653402 -0.07334893
000010 99 08 f6 be d2 2f 00 bf 39 8c 85 bf 35 47 69 bf
       -0.48053434 -0.5007297 -1.0433418 -0.9112428
000020 a9 9d 04 bf de 8a 4e be ab 6f 89 3e 96 50 68 3f
       -0.5180307 -0.20170161 0.26843008 0.90747964
000030 ad 7e 92 be 85 f5 c8 3d b6 be 13 3e 64 36 3c be
       -0.2861227 0.09812454 0.14428219 -0.18380123
000040 bb 06 ee 3c 66 6e 65 3f 27 50 2d 3f 29 7d 93 be
       0.029055944 0.8962158 0.6770043 -0.28806427
000050 a8 f8 00 3f a9 0c bb 3c be 30 35 3f fa 69 50 bf
       0.5037942 0.022833185 0.707775 -0.8141171
000060 c3 43 cf 3e 9c b3 11 bf dd 71 89 3e 1a 08 71 bf
       0.40481386 -0.5691469 0.26844683 -0.94152987
000070 c4 08 59 bf 5f 0c af bf 1a 3c 91 be 97 7d dc be
       -0.84779 -1.367565 -0.28366166 -0.43064567

module.conv2d2.1.running_var f4 [32]
000000 d1 83 91 3f 33 dd db 3e d2 66 82 3f 2b 90 12 3f
       1.1368352 0.429422 1.0187628 0.5725123
000010 43 27 cc 3f 8f 00 51 3f 12 7e be 3f f4 99 70 3f
       1.5949482 0.8164148 1.4882224 0.93984914
000020 42 19 52 3f 6b 6c 77 3e 9b 4a 5e 3f bc fe a9 3f
       0.8206979 0.24162452 0.8683259 1.3280864
000030 93 99 9d 3f d4 47 01 3f ef c3 77 3e ad c6 00 3f
       1.2312492 0.50500226 0.24195836 0.50303155
000040 ab 42 e0 3e a7 ff 20 3f 8b ba 24 3f 6d b2 3d 3f
       0.43800864 0.62890095 0.6434714 0.7410038
000050 01 7a d1 3f 27 2f 3b 3e 0c 32 4c 3f fc b7 2f 3f
       1.6365358 0.18279706 0.79763865 0.6864011
000060 5e 0b 8d 3f e1 81 82 3f c9 80 4d 3e b3 bb 4a 3f
       1.1019094 1.0195886 0.20068659 0.79192656
000070 e3 7f 23 3f e5 02 2a 40 bd aa 56 3e 13 be b0 3f
       0.63867015 2.6564267 0.20963569 1.3808006

module.conv2d3.0.weight f4 [64, 32, 4, 1]
000000 83 6e 98 3e d9 63 12 3e b8 2f 8f bc 39 a9 4d 3d
       0.29771814 0.14295901 -0.017478809 0.05021021
000010 c3 8b ae 3d cc e5 89 3c a5 4c bc 3b d8 97 39 bc
       0.08522751 0.016833209 0.0057464414 -0.011327706
000020 02 17 49 be 8d f4 79 bd f0 48 8f bd 38 6d 6b 3c
       -0.19637683 -0.061024237 -0.069963336 0.0143693015
000030 4c b4 cf 3d 00 d9 4e 3d ab 9f 3b be 51 32 30 3c
       0.10141811 0.050499916 -0.18322627 0.010754184
000040 bf 7b 13 bb 94 ca 05 be f7 e0 05 bd f9 56 4a be
       -0.0022504178 -0.13065559 -0.032685246 -0.1975974
000050 9e a0 57 be 78 7a 5d be 07 18 70 3e 41 0d b5 bd
       -0.21057364 -0.2162875 0.23446666 -0.088404186
000060 a7 e7 51 be 11 3c bf bd ab 6d 22 bc 8e ad 99 3e
       -0.20498525 -0.09337629 -0.009913842 0.30015224
000070 58 e6 51 bc f1 23 c8 bd 3b 87 f6 bd 02 01 81 3d
       -0.012811266 -0.0977248 -0.12037512 0.0629902
000080 63 64 d1 bc e2 ee a9 bb 9c c4 26 3e 65 0b e8 bd
       -0.025560563 -0.0051859478 0.16285938 -0.11330298
000090 80 81 49 be 2b fa 91 be cd 3b c3 bd ca ca 97 3d
       -0.19678307 -0.28511176 -0.095328905 0.07411726
0000a0 65 e0 15 3e 08 21 bf 3d 86 40 a0 bd 38 8d 73 3e
       0.14636381 0.09332472 -0.07824807 0.2378434
0000b0 b9 2f ff 3d df 78 8d bd e4 3f 40 3c 8b d4 2b be
       0.12460274 -0.0690782 0.011733983 -0.16780297
0000c0 71 07 49 bd b6 1b c0 3d d2 46 13 3e 4c cc 25 3d
       -0.049079362 0.093802854 0.14382485 0.040478036
0000d0 c1 09 e5 bd fa 86 df bd 39 92 56 bd c9 7b c1 3b
       -0.11183501 -0.109144166 -0.052385543 0.005904649
0000e0 ff 53 db be 85 b0 a4 be cf d4 5a bd ba f1 cc 3e
       -0.4283752 -0.32165924 -0.053425606 0.40028173
0000f0 63 cb 77 be 42 7d c7 bd ec e4 9b 3d 7d 30 22 3e
       -0.2419868 -0.09740688 0.07612023 0.1583881
000100 fc 95 15 3d e8 4b d7 3e 7e 7d 00 be c7 a4 48 be
       0.03651999 0.420501 -0.12547871 -0.19594108
000110 77 1a 71 3d 8b 55 f0 3d 2f a6 dd bd ca ae a2 be
       0.05886313 0.11735066 -0.10822713 -0.31773978
000120 d0 2c a3 bc ef 48 07 3e 62 5d 90 3e f4 55 35 3e
       -0.01991883 0.13211416 0.28196245 0.1770857
000130 d4 ca 3a 3d 77 57 41 3d 09 23 d5 bc 9f c4 c4 be
       0.04560359 0.047202554 -0.026017683 -0.3843126
000140 60 ca e8 bd a5 87 3f bd b5 81 eb bb 0b 57 3f be
       -0.11366725 -0.04676022 -0.007187093 -0.18685548
000150 01 a9 68 bd 04 b7 69 bd 09 95 d3 bc 4f 54 a6 3c
       -0.0568018 -0.057059303 -0.025827901 0.020303873
000160 ce c0 94 be ff 95 89 be aa 6c 99 3d a8 23 41 be
       -0.29053348 -0.2687225 0.07491429 -0.18861258
000170 f3 20 b4 be 52 f7 a2 be 57 54 5e be 37 6e 91 be
       -0.35181388 -0.31829315 -0.2171186 -0.284044
000180 d5 af 21 3e 3a 9b 72 3d 58 d2 86 3c 18 87 81 bd
       0.15789731 0.059230067 0.016457722 -0.06324595
000190 c8 8d ac bd 84 08 0d be b9 8a a9 bb 27 82 80 bd
       -0.0842548 -0.1377278 -0.0051740077 -0.062748246
0001a0 e7 45 bf 3d d1 61 c2 be 7b ad 16 bd 41 c1 90 3e
       0.09339505 -0.37965253 -0.036786538 0.2827244
0001b0 7e 93 74 3e d8 eb 34 be f6 06 ec bd bc dd 0c 3e
       0.23884389 -0.17668092 -0.11524765 0.1375646
0001c0 a8 17 72 be 69 f2 2b bd 3f 87 3f 3e 28 9f 3a 3e
       -0.23641837 -0.041979227 0.18703936 0.18224776
0001d0 09 65 07 be df 20 17 be d8 af 50 bd 6d 69 31 be
       -0.13222136 -0.14758633 -0.050948948 -0.17325373
0001e0 e1 04 ef bd f3 76 71 bb 15 17 6c 3e f9 67 d8 bd
       -0.116708525 -0.003684458 0.2305568 -0.10566706
0001f0 81 ce 0c be b6 61 0e be 62 7e 0a be 6d 2e 16 bd
       -0.1375065 -0.13904461 -0.13524774 -0.03666537
000200 7e a9 9c bd 3e f1 51 be 94 01 12 be c9 b4 a1 be
       -0.076495156 -0.20502183 -0.14258415 -0.3158324
000210 83 3c 11 3d 17 78 3a 3d 62 86 17 3e 09 9e 96 3e
       0.0354581 0.045524683 0.14797357 0.29417446
000220 0e 2f 81 be f5 90 9a be 7f b6 23 3e 6f 93 43 3e
       -0.25231212 -0.30188718 0.15987585 0.1909921
000230 1e 28 3c bd 59 8c de bc c0 cf 38 3e 88 7a 3e 3d
       -0.045936696 -0.027166532 0.18048 0.046503574
000240 bc f4 66 bd 1d f4 8e bd be bd 8f 3c 53 4f 9a 3d
       -0.05638574 -0.06980155 0.01754653 0.07534661
000250 b1 a8 20 3c 84 a4 45 3e ee 42 3d be b4 14 67 3e
       0.009805844 0.19301039 -0.18482563 0.22566491
000260 d5 ac 10 bf e0 e7 27 be 72 ed b4 3e 12 c9 bd 3d
       -0.5651372 -0.16397047 0.35337406 0.09266867
000270 7f a0 28 3e ec bc ed 3d 0b fb ff 3d 35 b9 35 be
       0.16467474 0.116082996 0.124990545 -0.17746432
000280 53 10 cc be 5b c8 9f 3d ef 72 07 3e 5f 5b 2c 3e
       -0.39856204 0.07801887 0.13227437 0.1683173
000290 83 d1 79 be 59 5f 91 3e 2b 34 b8 3e bb f8 06 be
       -0.24396329 0.28393057 0.359773 -0.1318082
0002a0 2f f3 3d be 15 76 88 be 0a de fa 3d 4b 98 0d 3e
       -0.18549798 -0.2665259 0.12249382 0.13827626
0002b0 4e 23 af bd 92 59 c4 3d 4e 09 35 bd 43 0c 9e bd
       -0.08551656 0.09587397 -0.044198327 -0.077171825
0002c0 87 bf 13 3d c6 43 c9 bd 7e 87 ab bd ed f5 9d 3c
       0.036071327 -0.0982738 -0.083754525 0.019282306
0002d0 7a a5 f9 bc 3d 9c bc bc bc db 4f 3c 5f 69 d6 3d
       -0.030474413 -0.023023719 0.012686666 0.10469317
0002e0 43 70 dd 3e 48 38 fa 3d 37 fe 3d be 31 8a d9 bd
       0.4324971 0.12217766 -0.18554007 -0.10622061
0002f0 76 bb bd be ab 96 67 be 39 cf 1b 3e ec a2 ac bd
       -0.37057084 -0.22616069 0.15215768 -0.084295124
000300 96 a9 f0 bb fa d1 a7 be 5b 54 12 be 25 f9 47 bd
       -0.007344435 -0.32777387 -0.14289992 -0.048821587
000310 95 29 18 bd 9d a4 10 3e ba 4d 18 bd 6e 85 27 3e
       -0.03714903 0.14125295 -0.0371835 0.16359493
000320 b6 65 53 bc cf 34 c2 3d 10 f6 f0 bc 39 1d c4 3d
       -0.012902668 0.09482729 -0.029414207 0.09575886
000330 bb fe ba be 7a 94 7c bd b1 0c c1 3d b7 ab 06 3e
       -0.3652247 -0.061665036 0.09426249 0.13151442
000340 c6 11 12 be 9a ac 20 bc 43 56 7f bd 43 cc a4 bd
       -0.14264593 -0.009806776 -0.062338125 -0.08046772
000350 e2 5c 11 bd 22 46 57 bc 3e c8 90 bd 0a f4 1d be
       -0.03548897 -0.01313928 -0.07069443 -0.15425125
000360 42 91 b7 bc 94 d9 65 3e 16 a8 e0 3d 73 20 18 bd
       -0.022408132 0.2244628 0.1096956 -0.03714032
000370 ea ac c3 bd 6f 2d 1d 3c bf 68 98 3e dd a5 d1 3c
       -0.09554465 0.009593352 0.29767415 0.025591785
000380 b1 49 20 bc 72 bd 93 bd 88 db bb be cf 72 b4 be
       -0.009783194 -0.07213868 -0.36690927 -0.35243842
000390 25 7e e4 bd 14 8c 2f be a5 03 9f be b9 76 b0 be
       -0.11156873 -0.1714328 -0.31057468 -0.34465578
0003a0 23 a2 fb bd d9 fc ab bd f0 77 5a 3c e9 81 50 3c
       -0.122867845 -0.08397836 0.013334259 0.0127262855
0003b0 48 7b 1a be dd bb 83 be cb 21 cf 3c 15 09 80 be
       -0.1508609 -0.25729266 0.025284668 -0.2500693
0003c0 b5 9a d4 be 2b 7c 11 bc 20 46 26 3d 2c eb aa 3e
       -0.41524282 -0.008879702 0.04059422 0.33382547
0003d0 48 98 0d be 91 d4 87 3e 83 f1 d2 3d 35 14 ad bd
       -0.13827622 0.26529363 0.10299971 -0.0845112
0003e0 99 64 42 be c5 f4 02 3e db d3 b7 3d 19 f7 2d 3e
       -0.18983687 0.12788685 0.08975955 0.16988792
0003f0 e0 ed af bd b8 fa bf bd 93 df 9d 3d 13 2f e9 3d
       -0.08590293 -0.09373993 0.07708659 0.11385932

module.conv2d3.0.bias f4 [64]
000000 67 0e 14 bd 59 58 87 3e 2f ea 99 bd 50 a1 4c 3e
       -0.036146548 0.2643459 -0.0751537 0.19983411
000010 f6 d0 90 be f8 d4 06 3e 1c f6 20 3e 04 62 be bd
       -0.28284425 0.13167179 0.15718883 -0.09296039
000020 1e cc 92 be 4f 19 40 3e 34 97 4d be 28 d8 1d 3e
       -0.28671354 0.18759654 -0.2007721 0.15414488
000030 2e c4 b0 3d cb bc 77 bd 6e 35 9a 3d f1 80 f3 bd
       0.08631168 -0.06048278 0.07529722 -0.11889828
000040 6d 64 60 be 33 30 98 be 4e 1a 58 be 47 0a 1c 3c
       -0.2191331 -0.29724273 -0.21103784 0.009523935
000050 60 9b 14 3e 96 d5 80 bd 0b 23 64 3d c5 1a 87 3e
       0.14512396 -0.06290738 0.055697482 0.2638761
000060 8b a8 23 3e 46 1c 01 be e7 13 40 be a0 d3 ed bb
       0.15982263 -0.12608442 -0.18757592 -0.0072578937
000070 c1 b8 e2 3d cc 7c 03 be af c5 8c be fe 40 8f 3c
       0.11070395 -0.12840575 -0.2749457 0.017487045
000080 c4 1c 83 be 85 2b e4 bd ff fa ad 3e 05 de 13 3e
       -0.25607884 -0.11141113 0.33980557 0.14440162
000090 20 52 5b 3e d4 df 31 3e 89 ef c9 bd c1 70 a0 bd
       0.21418047 0.1737054 -0.09860141 -0.07834006
0000a0 7a db 9c 3d 5d 04 99 3c 63 5f c9 bb 1d 86 91 3d
       0.07659049 0.018678838 -0.006145404 0.07105658
0000b0 69 20 35 bd 78 54 63 3d 99 13 6f be fe 8e d8 bc
       -0.04422036 0.055500478 -0.2334732 -0.026435371
0000c0 0c 89 2d 3d 30 c7 88 3d e9 60 83 3d c1 e0 dc bd
       0.042367026 0.06678617 0.064149685 -0.10785056
0000d0 aa 44 40 bc 4f 19 8f 3c 2c ae 94 3e e4 76 75 3d
       -0.011735121 0.017468123 0.29039133 0.059927836
0000e0 29 ed 19 be 7d 0f 4e be 3b 8a a5 be 82 c3 12 3e
       -0.15031876 -0.20123096 -0.32332024 0.14332393
0000f0 cc bb d8 3d 60 14 c2 bd 32 73 f3 3d 96 f4 ed bd
       0.105826944 -0.094765425 0.11887206 -0.11618917

module.conv2d3.1.weight f4 [64]
000000 04 d0 89 3f 02 76 80 3f b9 77 80 3f 18 04 87 3f
       1.0766606 1.0036013 1.0036536 1.0548124
000010 06 4e 62 3f dd bc 76 3f cc 8d 70 3f 99 43 8f 3f
       0.88400304 0.9638193 0.93966365 1.1192504
000020 94 7d 62 3f 15 55 6a 3f 99 8d 75 3f db 4b 75 3f
       0.88472867 0.91536075 0.95919186 0.9581887
000030 e4 e7 93 3f ee 17 6b 3f 6a 49 82 3f ca 12 81 3f
       1.1555142 0.9183339 1.0178654 1.0083859
000040 14 a7 91 3f 88 10 6a 3f 98 f7 98 3f ca 52 79 3f
       1.1379113 0.91431475 1.195056 0.9739195
000050 d5 85 7c 3f 5f 5b 46 3f 2e 18 bc 3e bd b9 81 3f
       0.9864171 0.7748317 0.36737198 1.0134808
000060 9e 6b 85 3f bc 4f 73 3f d3 eb 8b 3f 1d 9e 70 3f
       1.0423467 0.9504354 1.0931343 0.9399126
000070 b7 3c 6f 3f f3 ae 63 3f ad 2c 33 3f ea b5 7b 3f
       0.9345202 0.88938826 0.69990045 0.98324454
000080 e1 aa 8e 3f f0 4d 6d 3f 29 eb 99 3f d0 a9 95 3f
       1.1145898 0.9269705 1.202489 1.1692448
000090 7c 4c 31 3f 24 ac 52 3f ea e4 5e 3f 0f 0a 76 3f
       0.6925733 0.82293916 0.87068045 0.961091
0000a0 65 cf 84 3f 8c f0 8d 3f 4b d3 2b 3f f3 78 8d 3f
       1.0375792 1.1089034 0.6711928 1.1052536
0000b0 24 dc 87 3f 58 d1 14 3f 61 29 92 3f 7c af 72 3f
       1.0614057 0.58131933 1.1418878 0.9479902
0000c0 bf c2 84 3f 28 08 81 3f 62 c2 67 3f 6a 6b 4f 3f
       1.0371932 1.0080614 0.9053098 0.81023276
0000d0 e3 0a 84 3f ce 3b 7d 3f e7 82 6e 3f 97 89 84 3f
       1.0315822 0.9891938 0.9316849 1.0354489
0000e0 fd bf 30 3f 98 b8 87 3f c9 eb 65 3f 29 0d 75 3f
       0.6904295 1.0603209 0.89812905 0.95723206
0000f0 e5 0b 6e 3f 83 22 8f 3f 20 bd 6b 3f 45 93 9e 3f
       0.929869 1.1182407 0.92085457 1.2388693

module.conv2d3.1.bias f4 [64]
000000 18 cf ce be 94 a2 8c be a6 85 9d be cd 34 b9 be
       -0.40392375 -0.27467787 -0.30766028 -0.36173096
000010 7e de 97 be 93 86 8b be 16 d6 67 be ea 36 79 be
       -0.29661936 -0.2725111 -0.22640261 -0.24337354
000020 1b b5 14 bf c2 48 7c be 76 ec be be 2c a2 3a be
       -0.58088845 -0.2463713 -0.3728978 -0.18225926
000030 ac b3 1d 3c fe 9f 14 be c1 46 35 3c 1a 08 af be
       0.009625357 -0.14514157 0.011064232 -0.34185869
000040 f5 e9 d8 be a2 1f 61 bd c5 93 6a 3e fd e7 85 be
       -0.42365995 -0.054961808 0.22907932 -0.26153556
000050 40 95 b3 be 87 31 1b bf f1 e8 f5 bd 55 72 d4 be
       -0.35074806 -0.6062245 -0.12007321 -0.41493478
000060 b1 9e 3f be eb 55 10 be 45 04 74 bd 09 96 23 be
       -0.1871288 -0.14095275 -0.059574384 -0.15975203
000070 2d df 51 be 2e 25 5b be 09 8a 15 bf 0a 0b 57 3e
       -0.20495291 -0.21400902 -0.5841375 0.21000305
000080 66 2f 87 be bf d8 b4 bd 6c 18 8f be b6 94 ac 3c
       -0.2640335 -0.088304035 -0.2794832 0.021067005
000090 61 a4 f4 be e7 aa 0a bf 5a a1 9e be 7d b9 69 be
       -0.4778166 -0.54167026 -0.30982476 -0.22824664
0000a0 01 6f d1 be a5 02 6a be c1 eb d3 be bd 33 67 be
       -0.40905002 -0.22852571 -0.41390803 -0.2257833
0000b0 15 8c 13 bd 27 c2 09 be 4d 21 3a be 96 a5 3e bd
       -0.036022265 -0.1345297 -0.18176766 -0.046544634
0000c0 9f 80 af be 9c ab 0c be cc fb b3 be a2 28 31 bd
       -0.34277818 -0.13737339 -0.35153043 -0.04325164
0000d0 a3 68 31 be 9b de 07 be 92 18 d4 bd 4d 3d 28 be
       -0.17325072 -0.13268511 -0.10356249 -0.16429634
0000e0 1f 3a 0b be b7 12 99 be 13 3f aa 3d d4 79 b1 be
       -0.1359639 -0.2989709 0.08312812 -0.3466326
0000f0 ed 85 5d be 05 fe 93 bd dc 1d 8b be b6 ec 6b be
       -0.2163312 -0.07226185 -0.27171218 -0.23039517

module.conv2d3.1.running_mean f4 [64]
000000 2a 87 6a bf 05 69 d0 be 9a 1d bb bf 20 db a8 be
       -0.91612494 -0.40705124 -1.4618409 -0.3297968
000010 0b 71 1c c0 f6 d1 05 40 3a e9 b9 3f 2d 5c 22 bf
       -2.4443996 2.09094 1.45243 -0.634219
000020 30 f9 0e bf 99 63 d3 bf 35 bc 50 bc 5e d6 09 be
       -0.5584898 -1.651477 -0.012740185 -0.13460681
000030 6c f8 b9 bf 10 ba a5 bf 03 ec 4c bf 6d 54 1b be
       -1.4528937 -1.2947407 -0.80047625 -0.15168925
000040 d3 20 9f 3e df 21 c0 bf 2a 78 c6 bf ab 4f df bf
       0.3107973 -1.5010337 -1.5505421 -1.7446188
000050 d6 77 a3 3f 3a 43 d8 3e 76 ef aa 3f a7 79 12 bf
       1.2770946 0.4223879 1.3354328 -0.57216877
000060 d9 cc bb bf 91 05 af bf ac f0 96 bf ed fd 0f bf
       -1.467189 -1.3673574 -1.1792197 -0.56246835
000070 40 4e 17 c0 bc d7 2a c0 6b bf 7b 3d 38 7a 31 c0
       -2.364151 -2.6694174 0.061461847 -2.7730846
000080 01 4d d3 be c0 16 4b c0 23 39 14 bf 1a d3 84 bf
       -0.41269687 -3.1732635 -0.57899684 -1.0376923
000090 9d b9 07 bf a1 22 6c bf c5 35 bf bf 80 45 d7 bf
       -0.530176 -0.9224034 -1.4938284 -1.6818085
0000a0 87 bc 81 3f 99 5b 32 c0 13 07 a0 bf 4c 9f f8 bf
       1.0135659 -2.7868407 -1.2502159 -1.9423614
0000b0 58 0c 44 40 c6 75 75 bf f4 f8 85 bf fa a4 94 bf
       3.0632534 -0.95882833 -1.04666 -1.1612847
0000c0 57 ec b6 bf 17 5b 35 c0 4f b3 b5 3f 47 33 44 bf
       -1.4290875 -2.8336847 1.4195346 -0.76640743
0000d0 44 8d c9 bf 7a 33 0c bf 13 71 ef bf 53 ea 26 bf
       -1.5746236 -0.54766047 -1.8706383 -0.652013
0000e0 94 35 11 c0 87 76 91 be 0b 59 43 c0 a9 74 42 3e
       -2.2688951 -0.28410742 -3.0523098 0.18989815
0000f0 5c b1 e5 be 93 16 a9 bf c7 4a db 3f a2 a5 b2 bf
       -0.44861877 -1.3210014 1.7132195 -1.3956797

module.conv2d3.1.running_var f4 [64]
000000 e4 39 9a 3f df 36 44 3f 41 ae 5a 3f 11 88 26 3f
       1.2048917 0.76646227 0.8542214 0.6505137
000010 c8 ed 3d 40 89 28 4f 40 7d a7 17 40 a0 63 04 40
       2.967638 3.236849 2.3695977 2.0685806
000020 34 33 ec 3f 35 28 90 40 fd a7 14 40 db 05 05 40
       1.8453126 4.504908 2.3227532 2.0784824
000030 0e 49 7b 40 c5 1d 41 40 03 24 2f 40 8e 6d 22 40
       3.926334 3.017442 2.736573 2.5379367
000040 14 5f d4 3f 9a 26 63 40 53 56 c5 40 bb fa c0 3f
       1.6591516 3.549231 6.1667876 1.5076517
000050 c3 98 65 40 ba fd c5 3f 4f e7 e0 40 c3 95 01 40
       3.5874488 1.5468056 7.028236 2.0247657
000060 4c a8 b6 40 b4 20 b2 40 a7 3f 7c 40 fd 85 fc 3f
       5.708044 5.566492 3.941385 1.972839
000070 9e 2a 89 40 96 8c d6 40 53 f1 09 40 32 b0 02 41
       4.2864523 6.7046614 2.1553543 8.168016
000080 42 f3 7e 3f 86 aa 24 41 03 b1 92 3f 42 f1 55 40
       0.9958993 10.291632 1.146027 3.3428502
000090 23 8b e1 3f e8 6b 38 3f ca fd 77 40 84 b7 15 40
       1.7620586 0.7203965 3.874865 2.339326
0000a0 70 ae bd 3f 75 73 20 40 5f 4b 52 40 e1 4d e9 3f
       1.4818859 2.507047 3.2858503 1.8226892
0000b0 c1 b5 08 41 8b 2f 9f 40 c0 29 dd 3f b5 dd 4b 40
       8.5443735 4.9745536 1.7278366 3.185407
0000c0 1d f4 af 3f 8f 64 94 40 1b a9 83 40 b7 16 99 40
       1.3746372 4.637275 4.1143928 4.784023
0000d0 f5 14 c4 3f 87 93 8c 40 f6 a2 4f 40 ba db 2a 40
       1.5318896 4.3930087 3.2443213 2.669661
0000e0 d7 a5 6e 40 ca 6f c5 3f f7 05 c2 40 9e 50 ab 3f
       3.728872 1.542474 6.063228 1.3383977
0000f0 b4 0f f6 3f 97 b4 9c 3f 04 88 7d 40 92 06 f5 3f
       1.9223542 1.2242612 3.9614267 1.914263

module.conv2d4.0.weight f4 [128, 64, 4, 1]
000000 a4 62 02 bd 63 e8 4a be b1 71 f9 3d 31 12 3c 3e
       -0.031832352 -0.19815211 0.12179888 0.18366314
000010 1d 1f 86 3e e6 87 10 3e b0 ae 02 bd 57 04 3f 3e
       0.26195613 0.14114341 -0.031904876 0.18654
000020 fa d1 e5 bd 7d ae 45 3c 54 09 5b be 87 a1 df bd
       -0.112216905 0.012065527 -0.21390277 -0.10919481
000030 99 5c 3b 3c 28 53 00 3e 68 c4 9c 3d ec 38 b9 3d
       0.011435651 0.12531722 0.07654649 0.0904406
000040 7f b5 0e 3d bc de 06 3d e4 bc 3b 3d 24 f4 90 3d
       0.034841057 0.03292726 0.045834437 0.07077816
000050 15 f5 0a be d6 03 67 be 2b f7 69 bd 7e b7 63 bb
       -0.13570054 -0.22560057 -0.057120483 -0.003474682
000060 5b 9c 6b bb ad 78 92 3d 68 7a 28 be 8b 0e a5 bd
       -0.003595135 0.07151923 -0.16452944 -0.080594145
000070 d0 94 69 be 3e ae 57 be c8 b6 9a 3d 6b 4a 37 3e
       -0.22810674 -0.21062562 0.07554394 0.17899482
000080 9e 2f 93 3e 87 65 06 3e 7d 49 06 3e ed 86 87 3e
       0.28747267 0.13124667 0.13113971 0.26470128
000090 92 3a 1e be a1 ed 16 be cf 5d 25 3e df 49 98 3e
       -0.1545203 -0.14739086 0.16149066 0.2974386
0000a0 89 4e 8f 3d a4 29 55 3e f8 70 6a 3e 11 0c 86 3e
       0.06997401 0.20816666 0.22894657 0.2618108
0000b0 e3 63 8b 3a 04 e4 99 bd 4d e9 d9 bc 2e 22 2a be
       0.0010634627 -0.07514194 -0.026600504 -0.16614601
0000c0 01 f8 50 be 99 7b d2 bd c7 54 04 bd b9 c4 2c 3d
       -0.20407106 -0.10277481 -0.032307412 0.042179797
0000d0 94 5b 3c be 80 73 11 be 94 10 c2 3b f9 ee 0c 3e
       -0.1839431 -0.14204216 0.0059223864 0.13763036
0000e0 33 30 02 3e 2d 74 97 3c 49 1f 38 bd ba 44 27 be
       0.12713699 0.018488014 -0.04495171 -0.16334811
0000f0 08 c7 5f bd d0 88 a6 3d e3 15 bc bc 5a 0c 0c be
       -0.05463317 0.08131564 -0.022959655 -0.13676587
000100 b5 82 84 bb 3b 52 7b 3e e5 c1 a4 be 4f a9 78 bd
       -0.004043902 0.24543087 -0.3217918 -0.06070834
000110 9b ad 1d 3e d1 d3 8b 3d d4 09 22 be 95 62 a9 be
       0.15398256 0.0682751 -0.15824062 -0.33083025
000120 2a 3a 10 bf 92 20 12 be 06 46 d0 3d 60 bb 3f 3e
       -0.5633875 -0.14270237 0.10169606 0.18723822
000130 76 c9 f8 be b8 db 19 bf 5b 4c a2 be f6 09 c3 3d
       -0.48591202 -0.6010089 -0.3169888 0.09523384
000140 a6 6a a4 3a b2 52 6b bd 67 38 c4 bd 16 37 0c be
       0.0012543991 -0.05745191 -0.095810704 -0.13692889
000150 cd 18 c3 3c d0 09 30 3d 31 e6 4f 3d 48 f8 38 3d
       0.023815537 0.042978108 0.050756637 0.045158654
000160 ad 56 77 3c c0 72 9b 3d 67 01 61 3d 95 7b 98 ba
       0.015096349 0.07590246 0.054932978 -0.001163351
000170 e2 91 11 3e 2c b0 de ba de 68 f0 3b d8 7c d4 3c
       0.14215806 -0.0016989759 0.00733672 0.025938436
000180 80 fc da 3d 22 dc e3 3d ed 5c 01 bd 1c 64 87 be
       0.10692692 0.111259714 -0.03158276 -0.26443565
000190 c4 6e 48 be f8 9b 6f bd 20 3c 4d 3c 65 2e 7a bd
       -0.19573504 -0.058498353 0.012526542 -0.0610794
0001a0 7e eb bc 3d 6f fc 77 3e 63 91 19 be d7 39 5e be
       0.09224604 0.2421739 -0.14996867 -0.21701752
0001b0 66 37 9a 3b 91 7b 0e bd 86 c3 86 3c ef 33 04 be
       0.004706311 -0.03478581 0.016450655 -0.12910436
0001c0 b5 f5 85 bd 73 ee cb 3d d0 26 61 3e b5 e6 3f 3e
       -0.065410055 0.0995759 0.21987462 0.18740351
0001d0 52 1c 01 bd 4a 59 98 3d 05 2f 9f 3b 6e 1f 8e 3d
       -0.03152115 0.074389055 0.0048579 0.069395885
0001e0 8f de af bb fc 62 54 bd c1 82 99 3d 3b 7e 8e 3e
       -0.005367107 -0.05185221 0.074956425 0.2783068
0001f0 79 20 f9 bd 60 bb cd bc 15 18 f7 3d 8c ec 27 39
       -0.12164397 -0.025113761 0.1206514 0.00016014482
000200 f9 9f 2e be f1 81 8d be 1f 39 c3 bc dd 12 1b 3e
       -0.17053212 -0.276382 -0.023830948 0.15143915
000210 d8 a9 2d be 35 b0 41 be 56 6f 99 bd 43 03 97 bd
       -0.16959321 -0.18914874 -0.07491939 -0.07373669
000220 e3 7b 34 be 7f 0c 2b be 51 a1 ba bd a5 83 fa 3d
       -0.17625384 -0.16703986 -0.091128 0.122321405
000230 f7 ee d6 3d 93 33 29 3d 14 47 4a be 92 68 d6 be
       0.10494798 0.04130895 -0.19753677 -0.41876656
000240 dc 9e 19 3e 39 04 86 3e 3d 55 0d 3e c9 48 8f 3e
       0.15002006 0.26175097 0.13802047 0.27985218
000250 73 71 9b 3d 88 28 9d 3d 66 86 1e bd ba 1a 04 3e
       0.07589998 0.07673746 -0.03870239 0.1290082
000260 fa 6a e0 bc 4f 70 93 3d 7b d7 8e bd 5d 9a 09 3c
       -0.02739476 0.071991555 -0.069746934 0.0083986195
000270 58 d8 ba be 6c fe 38 be 00 93 70 be d8 54 e9 bd
       -0.36493182 -0.18065804 -0.23493576 -0.11393136
000280 3f 5d 54 bc 14 fe 6b 3c 3c 14 4e 3d 75 7e e5 3d
       -0.012961685 0.014403839 0.050312266 0.112057604
000290 62 ce 8e be be 41 40 be 0b bd b6 bd 8d 82 aa 3e
       -0.27891833 -0.18775079 -0.08922776 0.33302727
0002a0 5b e4 91 be f2 3c 5d bd a2 99 0e bd 42 8e 82 bd
       -0.28494534 -0.0540132 -0.034814484 -0.0637479
0002b0 f8 55 48 3e bb c8 41 3e 04 d9 f5 3d 58 10 b0 3a
       0.19564044 0.18924229 0.12004283 0.0013432605
0002c0 77 b4 56 3e 64 63 56 3e 92 1c 84 3e 06 d1 a8 3e
       0.2096728 0.20936352 0.25803047 0.32971972
0002d0 db 9e e9 3d 7d 26 27 bd a4 cb 2d be c7 b9 43 be
       0.114072524 -0.04080819 -0.16972214 -0.19113837
0002e0 81 a0 96 3e a2 8d 2f be 19 b7 96 bd 6d 9c b9 be
       0.2941933 -0.17143872 -0.07359142 -0.36252156
0002f0 a2 41 20 3e a2 e9 3d 3e 48 00 69 3d 00 cf 39 39
       0.15650037 0.18546155 0.056885034 0.00017720088
000300 b6 d0 02 bc bd e7 28 39 9c 30 c8 3d 9d 14 2d 3e
       -0.007984331 0.00016108058 0.097748965 0.16902395
000310 18 39 a7 3d 5a 45 bb 3d a0 8d 12 3e 53 02 22 3e
       0.08165187 0.09144087 0.14311838 0.15821199
000320 f1 23 b3 bd 96 20 eb bd 80 4e a8 bd 6d f1 c2 bd
       -0.0874709 -0.11480825 -0.08218098 -0.095187046
000330 c7 1f 95 bd 13 d8 74 bc 31 ef a8 bd 49 9a 8f be
       -0.07281452 -0.014944094 -0.08248747 -0.28047398
000340 79 78 a0 be c3 d9 bd be fc 0b aa bd 23 0d 85 3e
       -0.31341913 -0.37080202 -0.08303067 0.25986585
000350 ba b4 4e be 1a 54 0b bd 0e 38 b2 bd 27 71 4e 3d
       -0.20186129 -0.034015752 -0.08702098 0.05040088
000360 cd 52 c3 3d 7c b8 0d 3e 5e 3a 27 3e d3 af 84 bd
       0.09537277 0.13839906 0.16330859 -0.06478848
000370 47 5d 13 3e 54 9d c4 3d b2 6f 12 3e 1a 26 6c bc
       0.14391051 0.096003205 0.14300421 -0.014413381
000380 44 bb 42 3d e0 ea 3e 3d c3 c0 7c bb 29 b7 f2 3d
       0.04754187 0.046610713 -0.0038567043 0.11851341
000390 1e 6b a0 3c 1c b4 f2 bd ba 59 fd bd 49 a8 7d 3c
       0.019582327 -0.118507594 -0.123706296 0.015482017
0003a0 b9 c6 4f bd 2c 40 fd 3b b4 03 60 3d 05 76 e1 bd
       -0.050726626 0.007728597 0.05469103 -0.110088386
0003b0 f1 f0 4f be 48 78 ec 3d f6 ce 0f 3e d2 19 ef 3d
       -0.20306756 0.11546379 0.14043793 0.11674847
0003c0 a4 1e b9 bd 19 07 04 be 4d f2 d9 bd ea d6 b5 be
       -0.09039047 -0.12893333 -0.10641918 -0.3551553
0003d0 0f 39 96 bd d8 d7 01 3d 41 e1 5e 3d 45 54 69 3e
       -0.07335102 0.031699985 0.054414038 0.22786053
0003e0 da 6b 0b be 15 d2 b9 bd ee a2 7b bd c9 6d 1f be
       -0.13615361 -0.09073273 -0.06143468 -0.15569223
0003f0 a3 cb 4f 3d 34 f7 85 3e 44 56 2f be 19 59 97 be
       0.050731312 0.26165164 -0.17122751 -0.29560164

module.conv2d4.0.bias f4 [128]
000000 5a 05 92 be c7 91 a7 bc 13 03 cd 3d 05 72 6f 3e
       -0.28519708 -0.020455254 0.10010352 0.23383339
000010 33 bb 2f 3d f5 c8 2c be a5 65 d5 be 20 1b a1 3e
       0.042903136 -0.16873534 -0.4167911 0.31466007
000020 d1 f4 04 3d 69 52 6c bd ed 07 c1 bd 4c c9 9d be
       0.032460038 -0.05769578 -0.0942534 -0.3081764
000030 9c ff b9 3e 33 aa f2 bd fe 9d 62 3c 50 03 18 be
       0.36327827 -0.11848869 0.013831614 -0.14845014
000040 0a 12 71 bd 14 3d 19 bd e1 2b 15 3b 94 41 33 bd
       -0.058855094 -0.037411764 0.002276175 -0.043763712
000050 57 1f 82 be a8 e4 b1 3e 96 0d 13 3e da ac 11 be
       -0.25414535 0.34744763 0.14360651 -0.14226094
000060 6a cd 12 bd 9f 4c ba 3d e3 5f 64 3e 4c 14 8a 3e
       -0.03584043 0.090966456 0.22302203 0.2696861
000070 4b b0 f7 3e 02 0c ae bd 9e 09 94 3e 85 b7 0e 3d
       0.48376688 -0.08498384 0.28913587 0.034842987
000080 3c b8 db 3d 89 97 de 3c 3f c3 16 be ba 14 df 3c
       0.10728499 0.027171867 -0.14722918 0.027231563
000090 6b fe 25 3e 03 37 7f 3e 65 3b ad 3e 21 42 a2 bd
       0.16210334 0.24923329 0.33834377 -0.07922769
0000a0 b1 bd 68 be 37 5e 8c bd 4a 66 0f 3e c1 c5 be be
       -0.22728612 -0.068539076 0.14003864 -0.3726025
0000b0 4e 6c c2 3d 52 85 f7 bc f8 f0 2a 3d 5f 66 a4 3c
       0.09493314 -0.03021494 0.041733712 0.020068346
0000c0 8b 34 12 3d a6 23 9e bd 30 53 ba 3e ab ab 16 be
       0.03569464 -0.07721643 0.36391592 -0.14713924
0000d0 85 50 3e 3e 4f 65 c8 3d 1e 5c 55 3d 5d 4e 67 bd
       0.18585403 0.09784948 0.052089803 -0.056471217
0000e0 c0 2c 88 bd 12 79 71 3d ed 3f 9b 3b cd 9d 03 be
       -0.066491604 0.058953352 0.004737845 -0.12853165
0000f0 ea 2b a5 3c e9 ba d1 3d 85 73 62 be 86 5b 13 3c
       0.020162541 0.102407284 -0.2211438 0.008993989
000100 0a 53 6e bd 59 84 f7 bc a5 ff 1e 3e 9c 2d 52 3b
       -0.05818466 -0.030214475 0.15527208 0.0032070642
000110 71 24 e2 3b b7 ba 53 3e 36 13 89 3e e3 98 db bd
       0.006901317 0.20676695 0.2677247 -0.1072252
000120 73 47 35 bd 03 23 ee bd 42 7a 48 3e f2 65 b5 bd
       -0.044257592 -0.11627772 0.19577888 -0.08857335
000130 dd 92 00 be 94 05 8d bd 7d 6c ff bd 89 47 2c be
       -0.12556024 -0.068858296 -0.12471864 -0.16824163
000140 f6 77 34 3c a3 2a 26 3e b1 6e 93 bd 64 ea 32 3d
       0.011014929 0.16227202 -0.07198847 0.043680564
000150 d3 c8 73 be fd 4f d1 bb a8 55 16 3e dd a8 4d 3e
       -0.23807077 -0.006387709 0.14681113 0.20083947
000160 bd 65 01 b9 25 a0 21 3a b2 17 02 be 8d c7 e0 3d
       -0.00012340299 0.0006165526 -0.12704352 0.10975561
000170 51 85 32 bb 50 25 5c be ea fb 43 3c f0 f7 44 bd
       -0.0027240107 -0.21498609 0.011961916 -0.048088014
000180 0b 54 8c 3c 52 24 06 3e 95 75 bb bd eb d5 2d be
       0.017129919 0.13099793 -0.09153286 -0.16976134
000190 eb 9b c8 bd bc c1 b8 be ec 53 8c 3d 6f 52 a1 3c
       -0.09795364 -0.36085308 0.06851944 0.019692628
0001a0 49 b4 23 3c 06 10 6c 3e 72 ee 53 3c dc 17 a1 3c
       0.009991714 0.23052987 0.012935268 0.019664697
0001b0 87 1a 26 be b0 70 5c be 2a 55 78 bd f7 8a 2a bd
       -0.16221057 -0.21527362 -0.060628094 -0.041636433
0001c0 ea ac 28 3d e9 4d 4a bd ae 3e 8e 3d 9b 71 42 bd
       0.04118053 -0.049390707 0.06945549 -0.047471624
0001d0 aa b1 02 3e 4f 60 82 be 49 44 8c bd 61 28 80 3d
       0.12763086 -0.25464103 -0.06848962 0.06257702
0001e0 2e 41 25 be 6f 44 4e 3e 4a a8 f2 3c 96 7d 56 3c
       -0.16138145 0.20143293 0.029621262 0.013091465
0001f0 22 ed 94 bd aa 31 05 3d eb 09 0b bd 00 2f d4 3d
       -0.07271792 0.032518066 -0.033945005 0.10360527

module.conv2d4.1.weight f4 [128]
000000 d4 44 52 3f c1 70 5b 3f 5e d6 71 3f 00 eb 53 3f
       0.82136273 0.85718924 0.94467723 0.82780457
000010 29 43 2f 3f bb 1a 81 3f e5 f5 82 3f ce 20 65 3f
       0.68461853 1.0086282 1.0231291 0.8950318
000020 95 f2 6d 3f e5 96 65 3f bb 63 4a 3f 5e 5c 2f 3f
       0.92948276 0.8968337 0.79058427 0.68500316
000030 9f 0c 28 3f b4 44 6d 3f de 22 57 3f ae 23 81 3f
       0.6564426 0.9268296 0.8403758 1.0089014
000040 38 18 77 3f b4 a6 90 3f fe 81 80 3f 96 08 61 3f
       0.9652133 1.1300874 1.003967 0.87903726
000050 dd 5e 75 3f 45 0e 44 3f 36 83 72 3f 97 3a 86 3f
       0.95847875 0.76584274 0.9473146 1.048663
000060 62 c4 49 3f de 75 76 3f 35 22 9f 3f f5 8c 82 3f
       0.7881528 0.962736 1.2432314 1.0199267
000070 ec 8c 6b 3f 69 9c 7b 3f 47 c6 51 3f 9c 3f 44 3f
       0.92011905 0.9828554 0.8194317 0.7665956
000080 8f f2 3c 3f 04 30 79 3f b0 e6 65 3f 3a 7c 70 3f
       0.73807615 0.9733889 0.89805126 0.93939555
000090 e6 33 56 3f f3 0d 80 3f ae 9b 92 3f aa 16 5b 3f
       0.8367294 1.0004257 1.145376 0.8558146
0000a0 a4 6a 57 3f 70 c0 20 3f 15 6c 95 3f 38 3f 6e 3f
       0.84147096 0.62793636 1.1673609 0.93065214
0000b0 da af 82 3f ab b7 51 3f 99 55 6b 3f 27 c7 22 3f
       1.0209916 0.8192088 0.91927487 0.6358513
0000c0 8b b1 59 3f c5 66 94 3f 37 1b 81 3f b1 94 81 3f
       0.85036534 1.1593863 1.008643 1.0123502
0000d0 00 d4 4d 3f 48 32 27 3f cb 17 93 3f 1a aa 60 3f
       0.8040161 0.653111 1.1491636 0.87759554
0000e0 68 69 48 3f 4e f2 5a 3f 34 b5 70 3f 42 8a 5b 3f
       0.7828584 0.8552598 0.94026494 0.8575784
0000f0 d2 ca 62 3f d6 8c 80 3f f6 c9 83 3f e5 97 91 3f
       0.8859073 1.004298 1.0296009 1.137448
000100 d1 72 92 3f 74 1f 33 3f 38 65 7c 3f 69 a5 45 3f
       1.1441289 0.6996987 0.9859195 0.7720552
000110 20 40 81 3f dd ba 87 3f f6 00 86 3f 56 0d 4a 3f
       1.0097694 1.0603901 1.0469043 0.789266
000120 f8 e7 61 3f b9 3b 61 3f 97 3a 47 3f 49 10 5b 3f
       0.8824458 0.87981755 0.77823776 0.85571724
000130 f1 da 8b 3f 9d b0 79 3f 03 0a 65 3f 94 ce 57 3f
       1.0926191 0.97535115 0.894684 0.8429959
000140 e8 b5 86 3f 7d 46 5d 3f d1 5b 5a 3f 69 bb 85 3f
       1.0524263 0.8643568 0.8529635 1.0447818
000150 dc 6c 70 3f d4 4a 83 3f e4 ca 51 3f 9a cb 30 3f
       0.93916106 1.0257211 0.8195021 0.6906067
000160 fd d3 4d 3f 1f b4 44 3f 48 48 65 3f e3 ea 4a 3f
       0.80401593 0.7683734 0.8956342 0.7926466
000170 9b 8e 63 3f f7 74 4f 3f f7 0c 5f 3f f7 e9 72 3f
       0.88889474 0.8103785 0.8712916 0.9488825
000180 43 9a 78 3f 19 70 39 3f 3f a0 88 3f ea a9 88 3f
       0.97110385 0.7243667 1.0673903 1.0676854
000190 d4 8b 3b 3f 78 45 88 3f 8a e4 81 3f 42 e3 4e 3f
       0.73260236 1.06462 1.014787 0.8081552
0001a0 6f 06 60 3f a5 10 87 3f c4 42 53 3f fb c0 56 3f
       0.87509817 1.0551955 0.8252375 0.83888215
0001b0 58 f4 88 3f c9 7e a6 3f f5 bc 49 3f 3c c6 7d 3f
       1.0699568 1.3007442 0.7880395 0.99130607
0001c0 f2 26 81 3f 70 c3 29 3f 2f 0a 76 3f 67 5a 4d 3f
       1.009001 0.6631384 0.9610929 0.8021607
0001d0 8e 52 70 3f 71 ca 7c 3f 3b 1c 85 3f 9c b9 63 3f
       0.9387597 0.987464 1.039924 0.8895509
0001e0 c0 31 54 3f 2c 79 5f 3f be 7c 84 3f f4 3d 65 3f
       0.8288841 0.8729427 1.0350568 0.8954766
0001f0 64 6e 55 3f 80 2e 85 3f 96 4b 56 3f 33 47 94 3f
       0.8337157 1.0404816 0.83709085 1.1584228

module.conv2d4.1.bias f4 [128]
000000 dc a5 bf be 87 f9 c4 be fe 31 bf be 18 aa 86 be
       -0.37431228 -0.38471624 -0.3734283 -0.26301646
000010 3a 82 c1 be 72 a9 9f be 1d 9b 09 bf 37 d9 d8 be
       -0.37794667 -0.31183964 -0.5375231 -0.42353222
000020 2f 65 cf be 38 8f cd be d6 7f 89 be 73 bf 99 be
       -0.40506884 -0.4014833 -0.26855344 -0.30028877
000030 f5 6a da be b1 54 c6 be 31 9f b2 be 26 88 0a be
       -0.42659727 -0.3873649 -0.34887078 -0.13528499
000040 16 de 13 bf 7f 1a ef be cf 9a c4 be ce 9a b2 be
       -0.5776075 -0.46699902 -0.3839936 -0.34883732
000050 c1 6a 3a be 25 a9 ba be 05 3b 82 be 3a 8e 9f be
       -0.18204786 -0.36457172 -0.25435653 -0.31163198
000060 eb 76 8d be 1c 2e 9e be ae 83 1f bf 70 51 9a be
       -0.2762979 -0.30894554 -0.623103 -0.30140257
000070 8b 77 02 bf 12 c0 f1 bd 8e 8a a1 be 2c 2c b0 be
       -0.5096366 -0.11804213 -0.3155102 -0.344087
000080 1f a1 e5 be f2 0b bb 3a 5a be a5 be 10 46 f7 be
       -0.44849488 0.0014270528 -0.3237179 -0.4829564
000090 61 56 b4 be 3d ab e6 be 1a 20 e5 be 5a cf db be
       -0.35222152 -0.4505252 -0.44751054 -0.42931634
0000a0 2a 79 b9 be 12 8d 09 bf 42 38 06 bf 3b 51 fb be
       -0.36225253 -0.5373088 -0.5242959 -0.4908541
0000b0 17 cd bd be e9 de a6 be fa a6 25 be a1 bd a8 be
       -0.37070534 -0.32591942 -0.16176978 -0.32957175
0000c0 5d a7 8d be e5 e9 a3 be 85 b9 df be fe b1 ef be
       -0.2766675 -0.32014385 -0.43696228 -0.46815485
0000d0 52 e0 cc be 25 7d d6 be da 5d d8 be 6e 47 9b be
       -0.40014893 -0.41892353 -0.42259103 -0.30327934
0000e0 41 06 c9 be 3e 2c a8 be 93 e1 42 bf 07 4a 1e be
       -0.39262584 -0.32846254 -0.7612545 -0.15457927
0000f0 5e 45 c2 be 13 00 15 be e1 d0 df be 6d f4 0c bf
       -0.37943548 -0.1455081 -0.4371405 -0.55060464
000100 b5 16 af be 70 a6 b1 be 98 9a f8 be 10 a7 01 bf
       -0.34197012 -0.34697294 -0.48555446 -0.5064554
000110 15 a7 1a bf bf c0 96 be 5f 52 7c be d7 58 a2 be
       -0.60411197 -0.2944393 -0.24640797 -0.31708404
000120 9c ad ab be e1 04 c8 be 8b fc b2 be db 9e c4 be
       -0.3353089 -0.39066222 -0.349583 -0.38402447
000130 46 be 04 bf 7f 9e ee be 01 16 1d bf 24 8c 7d be
       -0.51852834 -0.46605298 -0.613617 -0.2476049
000140 fb 9e 69 be 0d ef 57 be a1 56 c3 be 10 48 9a be
       -0.22814552 -0.21087284 -0.3815203 -0.30133104
000150 9a b9 ae be 0f e1 7a be 56 bd a5 be bd 99 92 be
       -0.34125978 -0.24499916 -0.32371014 -0.28632918
000160 65 fc f3 bd c7 2f e8 be a0 8a 19 bf 5e 04 e2 be
       -0.11913375 -0.4534895 -0.5997715 -0.44143957
000170 ea 0a d1 be b4 c2 c2 be 6c 11 82 be 36 1b ae be
       -0.4082864 -0.38039172 -0.25403917 -0.34005135
000180 b3 c3 b5 be 1f 2a 85 be f0 e4 9b be 7a 30 80 be
       -0.3550087 -0.26008698 -0.30448103 -0.25036985
000190 f9 1b eb be 79 28 f4 be a0 5c c9 be 77 5d da be
       -0.4591978 -0.47687128 -0.3932848 -0.42649433
0001a0 af 94 ad be 3a 99 ad be 6a b6 83 be ad 60 ed be
       -0.339025 -0.33905965 -0.25725108 -0.4636282
0001b0 d6 97 87 be 6e 7f 0c bf 33 c1 e2 be 08 dc b5 be
       -0.2648303 -0.5488194 -0.44288024 -0.35519433
0001c0 e1 f8 70 be de e7 ef be 19 bc c5 be 03 51 d3 be
       -0.2353244 -0.46856588 -0.3862007 -0.41272745
0001d0 30 0d 8c be 84 65 b2 be 9a 62 b1 be e1 d3 af be
       -0.2735381 -0.34843075 -0.3464554 -0.34341338
0001e0 23 5b da be 9f 18 cc be 55 e5 99 be bf 09 9a be
       -0.42647657 -0.39862534 -0.3005778 -0.3008556
0001f0 fb b8 d2 be 76 2e bd be 1a dd b2 be fa 25 e4 be
       -0.41156754 -0.3694951 -0.34934312 -0.44560224
