neural networks/trained/protFinder_final.pth (torch, 185575 bytes, 38 tensors)

module.conv1.0.weight f4 [32, 440, 1, 1]
0	0xbcc70b6d	-0.02429744
1	0xbd65c600	-0.05609703
2	0xbd83c66d	-0.06434331
3	0xbc858995	-0.016300956
4	0x3e1f9731	0.15585019
5	0x3dce5287	0.100743346
6	0x3d6ac174	0.057313398
7	0x3d36d593	0.044637274
8	0x3dca3a22	0.09874369
9	0x3c49155a	0.012273157
10	0x3c6c36b6	0.014417341
11	0xbd057f90	-0.032592356
12	0x3deb18f8	0.11479372
13	0xbd04687b	-0.032326203
14	0x3e095f4b	0.13415258
15	0xbdbadef9	-0.0912456
16	0x3c3d32e4	0.011547778
17	0xbdb18b67	-0.08669167
18	0xbd981fc6	-0.07427935
19	0x3e1a2396	0.15052637
20	0xc02d333b	-2.7062519
21	0x3f5ed7fc	0.87048316
22	0xc004d793	-2.0756576
23	0x3f3a7878	0.7284007
24	0xbf8dccac	-1.1078086
25	0xbfff0473	-1.9923233
26	0x3f4e20e7	0.80518955
27	0xbf8e4241	-1.1113969
28	0xbe5863b1	-0.21131779
29	0xbec383ae	-0.381864
30	0x3e165f0b	0.14684694
31	0xbe1d1ebc	-0.15343755
32	0xbccbbd2a	-0.024870474
33	0xbf8b86de	-1.0900533
34	0x3f54cbbc	0.83123374
35	0xbb4c6880	-0.0031190217
36	0xbf6bb280	-0.92069244
37	0x3f2e7805	0.68151885
38	0xbee7ee9c	-0.45299232
39	0xc030b758	-2.7611904
40	0x3fd06528	1.628087
41	0x3f27e956	0.6559042
42	0xbfecd3d0	-1.850214
43	0xbeea6b3a	-0.45784932
44	0x3f322b93	0.6959774
45	0xbf6d2f52	-0.9265033
46	0xbfb8c70d	-1.4435745
47	0x3fe9fdaf	1.8280543
48	0xbf2951cc	-0.6614044
49	0x3f82665d	1.0187489
50	0xbf4dc9cd	-0.8038605
51	0x3fb14f99	1.3852416
52	0xbf8e7164	-1.1128354
53	0x3f18c06d	0.5966862
54	0xbf73e112	-0.95265305
55	0x3dfa39f5	0.12218086
56	0x3f6eb4aa	0.9324442
57	0xbf98fd7e	-1.195236
58	0x3f8415d1	1.0319158
59	0x3fd630d9	1.6733657
60	0x3ec18c6c	0.37802446
61	0x3ed3dec1	0.41380885
62	0x3ea65691	0.3248792
63	0xbdf28a14	-0.118427426
64	0x3ebbfb24	0.36715043
65	0x3eee89ea	0.46589595
66	0x3dc51be9	0.09624464
67	0x3eb9e6e5	0.3630897
68	0xbf4b5f2a	-0.79442084
69	0xbc64d113	-0.013965863
70	0x3f78af3f	0.97142404
71	0xbf25e677	-0.64804786
72	0xba2a4bad	-0.0006496262
73	0x3e51e20e	0.2049639
74	0x3f929e85	1.1454626
75	0x3f3c9a44	0.7367289
76	0xbe9ca787	-0.30596563
77	0xc005b02e	-2.0888782
78	0x3f4db94a	0.80360854
79	0x3ef672a9	0.48134354
80	0x3f429bac	0.76018786
81	0xbf01b653	-0.5066883
82	0x3eca039e	0.39455885
83	0xbf9beece	-1.2182252
84	0x3ed2c610	0.41166735
85	0x4020d90f	2.5132482
86	0x3f03749f	0.51349825
87	0x3e21c64b	0.15798299
88	0xbebfffc5	-0.37499824
89	0x3fb80262	1.4375727
90	0xbfd54197	-1.6660641
91	0xbe9a0b08	-0.3008654
92	0xbeddd6f8	-0.4332807
93	0x3f1f8618	0.62313986
94	0x3f77f2bf	0.96854776
95	0x3f049243	0.5178568
96	0x3f5827f7	0.8443598
97	0xbfeb8174	-1.8398881
98	0x3dcf78c3	0.10130455
99	0x3f796cbe	0.9743155
100	0xbf213ab5	-0.62980205
101	0x4003d933	2.0601318
102	0x3f42e786	0.76134527
103	0xc0378b72	-2.867886
104	0xbfc6f8cf	-1.554468
105	0xbf5e875c	-0.8692529
106	0x3e397d32	0.18114164
107	0xbf56b88c	-0.83875346
108	0xbf5f867a	-0.8731457
109	0x3f8c1f3d	1.0947033
110	0xbd22e14f	-0.039765652
111	0x3e89e643	0.26933488
112	0xbfb6ef69	-1.4291812
113	0xbfb4a030	-1.4111385
114	0x3e47d90a	0.19516388
115	0xbf4ef95a	-0.8084923
116	0xbf03e144	-0.51515603
117	0x3decdd19	0.115656085
118	0xbf287f29	-0.6581903
119	0xbf6ce409	-0.92535454
120	0xbdd1e07c	-0.10247895
121	0xbf834ccd	-1.0257813
122	0x3e7daf81	0.2477398
123	0x3ef06c2b	0.46957526
124	0xbeea0585	-0.45707336
125	0xbe4dec49	-0.20109667
126	0x3f223902	0.63368237
127	0x3fb437b0	1.4079494
128	0xbefa4726	-0.48882407
129	0x3e5c37db	0.21505682
130	0xbe24a819	-0.16079749
131	0x4002f2d7	2.0460718
132	0x3f855bbb	1.0418619
133	0xbf517fc0	-0.81835556
134	0xbfeccae1	-1.8499414
135	0x3f455659	0.7708488
136	0x3e4a19ab	0.19736354
137	0x3f0907de	0.5352763
138	0x40078a0e	2.1178012
139	0xbd64bd6c	-0.05584471
140	0xbebf4d54	-0.37363684
141	0x3f7e9bc2	0.9945642
142	0x3f3bbeaa	0.73337805
143	0x3f949bbc	1.1610026
144	0x3ee77253	0.4520441
145	0xbe7c1696	-0.24617991
146	0x3fb5487d	1.4162747
147	0xbf7f1f05	-0.9965671
148	0x3e8b4ad7	0.27205536
149	0xbfb1cd6c	-1.3890815
150	0x406f8745	3.7426312
151	0x4013454e	2.301105
152	0xbf7eea29	-0.9957605
153	0x3f4ed4d3	0.80793494
154	0xbf650d17	-0.894731
155	0x3eabd49a	0.3356064
156	0xbfa33e00	-1.2753296
157	0x3ec52247	0.38502714
158	0xbf6fa992	-0.9361812
159	0xbf2a9f45	-0.66649276
160	0xbf9f8e1d	-1.2465245
161	0xbde03c1c	-0.10948965
162	0xbf9dc99e	-1.2327154
163	0xbdeb4bc4	-0.114890605
164	0xbf4e52c0	-0.80595016
165	0xbeb06513	-0.34452114
166	0xc0195990	-2.3960915
167	0x3e0a38f0	0.13498282
168	0xbf59230a	-0.8481909
169	0x402e89a8	2.7271519
170	0xbe890a30	-0.26765585
171	0xbf5d67a3	-0.8648626
172	0xbfa3a99b	-1.2786134
173	0xbfc97f5c	-1.5741992
174	0x3ed3ce33	0.41368255
175	0x3f3e57e5	0.74352866
176	0xc031f2fb	-2.7804554
177	0x3e451d40	0.19249439
178	0x3f58460f	0.844819
179	0xbf79ae8c	-0.9753196
180	0x3febd174	1.8423295
181	0xbee6dc39	-0.45089892
182	0xbead90f9	-0.33899668
183	0x3ebfe364	0.37478173
184	0x3eb63c4e	0.35592884
185	0xbed36dbd	-0.4129466
186	0xbece4e5e	-0.40294164
187	0xbe93fb45	-0.2890264
188	0x3f91f293	1.1402153
189	0x3dbd9605	0.092571296
190	0xc0119ea0	-2.2753067
191	0xbcfccfde	-0.030860838
192	0x4005c9b3	2.0904357
193	0xbd697015	-0.056991655
194	0x401b627e	2.4278865
195	0xbfcee8ab	-1.6164755
196	0x3f09a7de	0.5377177
197	0x3f638682	0.8887712
198	0xbeb2bfc9	-0.34911945
199	0x3fc6f474	1.5543351
200	0x3e4de563	0.20107035
201	0xbf6430de	-0.89137065
202	0xbecd5332	-0.40102535
203	0xbf3b23dc	-0.7310159
204	0x3f1e977d	0.619499
205	0x3e1b5012	0.15167263
206	0xbe8a1d8f	-0.26975676
207	0xbf8165a7	-1.0109147
208	0xbeb7d7f7	-0.35906956
209	0x3d7120f7	0.05886933
210	0xbeeb4097	-0.45947716
211	0xbf3a4b3c	-0.7277105
212	0x3ee7f608	0.45304894
213	0x3f29aa7e	0.66275775
214	0xbf6f614f	-0.93507856
215	0xbeb49513	-0.35269985
216	0x3f8e3060	1.1108513
217	0xbfb3272d	-1.399633
218	0xbebc02b3	-0.3672081
219	0x3eade088	0.33960366
220	0x3f0dc969	0.5538545
221	0x3e48760c	0.19576281
222	0x3e4b3231	0.19843365
223	0xbeef314a	-0.46717292
224	0x3d76eb62	0.060283072
225	0x3f17ab84	0.5924609
226	0x3e908e6c	0.2823366
227	0x3e805a10	0.25068712
228	0xbea2265c	-0.3166989
229	0x3e9c2311	0.30495504
230	0x3f85cb57	1.0452679
231	0xbf434da2	-0.76290333
232	0x3ead0ab4	0.33797228
233	0x3eab368c	0.33440053
234	0xbdb0efbf	-0.08639478
235	0x3eedaee2	0.46422487
236	0x3d658794	0.0560375
237	0xbe5ae896	-0.21377787
238	0xbf2940b3	-0.6611435
239	0x3f16a963	0.58852214
240	0xbf3aeec4	-0.7302058
241	0x3fd85b5f	1.6902884
242	0xbc354de9	-0.0110659385
243	0xbeef1164	-0.46692955
244	0xbeab0f88	-0.33410287
245	0x3f9a8113	1.207064
246	0x3f5e7ff8	0.86914015
247	0xbe004e91	-0.1252997
248	0x3b61c57f	0.0034449992
249	0xbf5f4a06	-0.87222326
250	0xbe34656a	-0.17616811
251	0xbe94ed10	-0.29087114
252	0xbf3b29bb	-0.7311055
253	0x3f284635	0.6573213
254	0xbe1857c6	-0.14877233
255	0xbf766f44	-0.9626353

module.conv1.1.weight f4 [32]
0	0x3f7eb5dc	0.99496245
1	0x3f5d6dce	0.86495674
2	0x3f8263b0	1.0186672
3	0x3f63d104	0.8899081
4	0x3f1adfe6	0.6049789
5	0x3fd083a2	1.6290171
6	0x3f4bc42c	0.7959621
7	0x3f9cedbe	1.2260053
8	0x3f0232ca	0.5085875
9	0x3f202eff	0.6257171
10	0x3f2bf753	0.6717426
11	0x3f9cf4d6	1.2262218
12	0x3f7bf542	0.9842111
13	0x3f3f6b8b	0.7477347
14	0x3f3de295	0.7417386
15	0x3f8b2b8f	1.0872668
16	0x3f290233	0.6601898
17	0x3f4146b3	0.75498503
18	0x3f7aeefb	0.98020905
19	0x3f5d5ea8	0.8647256
20	0x3f3400ff	0.7031402
21	0x3f5fe7b6	0.8746294
22	0x3f4d872b	0.80284375
23	0x3f3133fb	0.6921994
24	0x3f5c35b2	0.8601943
25	0x3f9d1dfd	1.2274777
26	0x3f5eefe1	0.87084776
27	0x3f13e4ef	0.577712
28	0x3f1bf2cd	0.6091736
29	0x3f23c0af	0.63965887
30	0x3f250bbe	0.6447104
31	0x3f922b22	1.1419413

module.conv1.1.bias f4 [32]
0	0x3e1397da	0.14413396
1	0xbdc4cdf6	-0.096095964
2	0x3e36b046	0.1784068
3	0x3eb0d84c	0.3454002
4	0x3e15af42	0.14617637
5	0xbedfea33	-0.43733367
6	0x3df4f1e3	0.11960199
7	0xbe277b3d	-0.16355605
8	0x3f0d0cac	0.5509746
9	0x3c468c1b	0.012118365
10	0xbcabdfcd	-0.02098074
11	0xbe8fb75b	-0.28069577
12	0x3edeccf8	0.43515754
13	0xbcfb0079	-0.030639874
14	0x3e7195be	0.23592278
15	0xbd822af9	-0.06355853
16	0x3d0bfccc	0.034176633
17	0x3ed5ed36	0.4178254
18	0xbdf2816d	-0.11841092
19	0x3e6ad870	0.22934127
20	0x3f0bfdeb	0.54684323
21	0x3f64f06f	0.8942937
22	0x3eab94d2	0.33511978
23	0x3ee05003	0.43811044
24	0x3f16745f	0.5877132
25	0xbe4d2dd4	-0.20037013
26	0xbe31a1ca	-0.17346874
27	0xbcb59eee	-0.02217051
28	0x3e2bb37e	0.1676769
29	0xbdc1f615	-0.094707645
30	0x3da5e66f	0.08100592
31	0xbeaa9760	-0.33318615

module.conv1.1.running_mean f4 [32]
0	0x3b7cfa41	0.0038601311
1	0x3c30eb07	0.010798222
2	0x3b2d3154	0.0026427107
3	0xbcafb001	-0.02144623
4	0xbd465856	-0.048424087
5	0xbb1d3962	-0.0023990502
6	0xbd76c78c	-0.060248896
7	0xbd4b035b	-0.049563747
8	0xbc3647e9	-0.011125543
9	0xbdaf1ee6	-0.08550815
10	0xbdd1bea2	-0.102414384
11	0xbca99fc0	-0.020706058
12	0xbc95d823	-0.018291539
13	0xbdb85ef0	-0.09002483
14	0xbd6e6b05	-0.05820753
15	0xbc0afd34	-0.00848322
16	0xbb029222	-0.0019923528
17	0x3a701a02	0.0009159149
18	0xbcd0112c	-0.025398813
19	0xbd09f0af	-0.0336768
20	0x3b92d812	0.004481324
21	0xbdc67bd5	-0.09691588
22	0xb9ec0661	-0.0004501818
23	0xbc751a7f	-0.01495993
24	0x3bdd9a42	0.0067627737
25	0x3bcbea8c	0.0062230285
26	0xbcb7830c	-0.022401355
27	0xbdd5b2da	-0.10434504
28	0xbced692d	-0.028980816
29	0xbd6ea550	-0.058263123
30	0xbda8567c	-0.082196206
31	0x3b4f6698	0.0031646844

module.conv1.1.running_var f4 [32]
0	0x3a150b44	0.00056855776
1	0x3b0330eb	0.002001817
2	0x3b54b76d	0.0032457963
3	0x39fc9b3b	0.0004818084
4	0x3b0d855d	0.0021594383
5	0x3be58534	0.0070044044
6	0x3b35df76	0.0027751601
7	0x3b89fe17	0.004211198
8	0x394c5e22	0.00019490023
9	0x3aeaad3e	0.0017904413
10	0x3b47cdfe	0.003048777
11	0x3b12745f	0.0022347195
12	0x39b578ee	0.0003461311
13	0x3b6cfb2f	0.003616046
14	0x3acf5a36	0.0015819732
15	0x3b2622f5	0.0025350426
16	0x3b235a1e	0.002492554
17	0x3a0a632e	0.0005279061
18	0x3ac65d78	0.0015134057
19	0x3a26c9b0	0.0006362451
20	0x39b6d5db	0.0003487308
21	0x3b9f96ab	0.004870256
22	0x3a5e216c	0.0008473608
23	0x39bf5ded	0.0003650034
24	0x3a2ed02d	0.0006668594
25	0x3b375417	0.0027973705
26	0x3a5274fa	0.0008028295
27	0x3b5b5b9c	0.0033471351
28	0x3a5902b7	0.00082782976
29	0x3a881d2c	0.001038467
30	0x3b12cfeb	0.002240176
31	0x3b55c58a	0.0032618963

module.se1.fc1.weight f4 [16, 32, 1, 1]
0	0xbe4d4341	-0.20045187
1	0x3ed150c9	0.40881947
2	0x3e662d07	0.22478114
3	0xbccbf9fd	-0.024899477
4	0x3e52a847	0.20572005
5	0xbe8bb908	-0.27289605
6	0xbe18b1b4	-0.14911538
7	0xbb7f2d15	-0.0038936783
8	0xbeab501a	-0.3345955
9	0x3de8d9df	0.113696806
10	0x3ea8bc69	0.32956246
11	0x3e2add94	0.16686088
12	0x3d7188dc	0.05896841
13	0x3e78bd4d	0.24290963
14	0xbde615d1	-0.1123463
15	0xbdcfa3a8	-0.10138637
16	0x3e9b9c9b	0.30392918
17	0x3e0de117	0.13855396
18	0xbe50ea64	-0.20401913
19	0x3e1f27f5	0.15542586
20	0xbd14f536	-0.036366664
21	0xbe92c7e0	-0.28668118
22	0x3eb23d1e	0.34812254
23	0xbdc4a972	-0.09602632
24	0xbe82176d	-0.25408497
25	0xbc2fdaac	-0.010733288
26	0xbe19fad3	-0.15037088
27	0x3e5e5c7a	0.21714965
28	0xbe00794e	-0.12546274
29	0xbca86e9f	-0.02056056
30	0x3e55aedf	0.2086749
31	0x3e6d8997	0.23197018
32	0x3eb4ce39	0.35313585
33	0xbd03b33c	-0.032153353
34	0x3da0bb53	0.07848229
35	0x3e2e51fe	0.17023465
36	0x3e17766b	0.14791267
37	0xbe153f9d	-0.14575048
38	0x3dca3aa0	0.09874463
39	0xbed43f61	-0.41454604
40	0x3e8f3cff	0.27976224
41	0x3e34e6bd	0.17666145
42	0x3e18bd08	0.1491586
43	0xbcb1599b	-0.021649173
44	0x3d2579af	0.04039925
45	0x3e5cd7a5	0.21566637
46	0x3e931d59	0.28733328
47	0xbe36249d	-0.17787404
48	0x3e6e497f	0.23270224
49	0x3ee010e5	0.4376289
50	0xbdf01418	-0.117225826
51	0x3da5cf86	0.080962226
52	0x3ee37dc3	0.44431886
53	0xbe43e17b	-0.19128983
54	0xbe6be3a0	-0.23036051
55	0xbe05e52b	-0.13075702
56	0x3e44d68a	0.19222465
57	0xbe236028	-0.1595465
58	0xbd0d0f7c	-0.034438595
59	0x3e3f1c25	0.1866308
60	0x3d60354f	0.05473834
61	0x3d1eb5b9	0.038747523
62	0x3db213af	0.086951606
63	0xbd9be292	-0.07611574
64	0x3dc72925	0.097246446
65	0xbea06f2a	-0.3133481
66	0x3defefc3	0.11715653
67	0xbe052ef4	-0.13006192
68	0x3e067397	0.13130032
69	0xbe4c2933	-0.19937591
70	0x3dd6d370	0.10489547
71	0xbe1dde80	-0.15416908
72	0x3e1b9fc3	0.15197663
73	0xbce53467	-0.027979089
74	0xbe6f2fab	-0.23358028
75	0x3bb553f2	0.0055336887
76	0xbec1afa3	-0.37829313
77	0xbe7de8a2	-0.24795774
78	0xbe1619b9	-0.1465825
79	0x3ce1cd2c	0.027563654
80	0x3e681435	0.22663958
81	0x3d9c1ef2	0.0762309
82	0x3e2f6e54	0.1713193
83	0xbe8a10a9	-0.26965836
84	0xbdf27456	-0.118385956
85	0x3e1a5c1c	0.150742
86	0x3c7cec32	0.015437173
87	0xbe2e0714	-0.16994888
88	0xbe3120ba	-0.1729764
89	0xbcb754fc	-0.02237939
90	0xbcceed3c	-0.025259607
91	0xbcac0db7	-0.021002633
92	0xbd3d72bb	-0.046251994
93	0x3eabc3d0	0.3354783
94	0xbe2c4f89	-0.16827215
95	0xbd88db2a	-0.06682427
96	0x3e1cc5f5	0.1530989
97	0xbe8d5a2b	-0.27607855
98	0x3eef4e90	0.46739626
99	0xbdf63c72	-0.12023248
100	0xbc01e804	-0.007928852
101	0xbe2dbbb3	-0.16966133
102	0xbd64e850	-0.055885613
103	0x3e4d2108	0.20032132
104	0xbe39aab4	-0.18131524
105	0x3e0035c7	0.12520514
106	0x3e33325f	0.17499684
107	0xbe6a46f9	-0.22878636
108	0xbd86c295	-0.06580082
109	0x3e9618eb	0.29315886
110	0xbeb852c3	-0.36000642
111	0xbde5da97	-0.11223333
112	0x3e06c022	0.1315923
113	0xbe35f27a	-0.17768279
114	0xbd9063b9	-0.070502706
115	0xbd2e5617	-0.04256257
116	0x3d37ea3f	0.04490113
117	0xbd640b1f	-0.05567467
118	0x3e255f55	0.16149648
119	0x3e16c343	0.14722924
120	0x3e7f83b3	0.24952583
121	0x3e223b41	0.15842916
122	0x3e99d596	0.30045766
123	0x3dbd9ddc	0.09258625
124	0x3e98dbf1	0.29855302
125	0x3e2525bd	0.16127677
126	0x3ed09f69	0.4074662
127	0x3de08eca	0.10964735
128	0xbe93c1a8	-0.28858685
129	0x3f433604	0.76254296
130	0xbedef3f0	-0.43545485
131	0xbe0ccde8	-0.13750422
132	0x3e0ce3f3	0.1375883
133	0x3e0c99b4	0.13730508
134	0x3ea5afdd	0.32360736
135	0xbe8ffacd	-0.28121033
136	0xbd922451	-0.07135833
137	0xbd624cf2	-0.055249162
138	0xbeafbfa4	-0.34325898
139	0x3d8490b4	0.064729124
140	0xbcf4f212	-0.029900584
141	0xbe8942b9	-0.26808718
142	0x3ea4405b	0.3208035
143	0xbe919a54	-0.28438056
144	0x3e53a45c	0.20668167
145	0x3d376c05	0.04478075
146	0xbe273fbe	-0.1633291
147	0x3d69f450	0.05711776
148	0xbe2f941f	-0.17146347
149	0x3e2152ba	0.15754214
150	0xbda829be	-0.08211087
151	0x3e48abdf	0.19596814
152	0xbe3daeb3	-0.18523674
153	0xbed3e24f	-0.41383597
154	0xbc347248	-0.011013575
155	0xbdba8a69	-0.09108431
156	0xbde96656	-0.11396472
157	0x3d3c29ba	0.04593823
158	0x3cc6d2fb	0.024270525
159	0x3e89bb63	0.26900777
160	0xbcffbba8	-0.031217411
161	0xbe18e466	-0.14930877
162	0x3d84f1eb	0.06491455
163	0x3e8e1a86	0.2775461
164	0x3db9d2c5	0.09073404
165	0xbd8edb3b	-0.06975409
166	0xbe47716a	-0.19476858
167	0x3db26b09	0.087118216
168	0xbe2b1590	-0.16707444
169	0xbbfcc3ae	-0.0077137565
170	0x3ddb9b07	0.107229285
171	0xbe2be21f	-0.16785477
172	0x3eb75b9c	0.3581208
173	0xbe0468f7	-0.12930666
174	0x3d6a73c4	0.05723931
175	0x3e8942e8	0.26808858
176	0x3e5cc670	0.21560073
177	0xbd9f0393	-0.077643536
178	0x3d812bd4	0.06307188
179	0xbeb6b1e8	-0.35682607
180	0x3c33292a	0.010935107
181	0x3e2335cf	0.15938495
182	0xbe33022a	-0.17481294
183	0x3ee70043	0.45117387
184	0xbe2a3a5d	-0.16623826
185	0x3df0d5f2	0.11759557
186	0x3d8ac974	0.067767054
187	0xbd1047ea	-0.035224833
188	0x3c877535	0.01653538
189	0x3d544e71	0.05183262
190	0x3dd87035	0.10568277
191	0xbeaf7f2c	-0.34276712
192	0x3e40eeac	0.18841046
193	0x3e469ac4	0.19394976
194	0xbe186d76	-0.14885506
195	0x3d3a11c5	0.045427103
196	0xbda371f5	-0.0798072
197	0xbf15a044	-0.5844767
198	0x3e282a4d	0.16422386
199	0xbf6dd39e	-0.9290103
200	0xbe05967f	-0.13045691
201	0xbddc60f7	-0.10760682
202	0xbf07e8fd	-0.53089887
203	0xbf8f8f2d	-1.1215569
204	0xbc7d57ee	-0.015462859
205	0xbe5d8a82	-0.21634868
206	0x3e8006ce	0.25005192
207	0xbd839405	-0.06424717
208	0x3df58806	0.11988835
209	0x3dd0ca62	0.101948515
210	0x3e488aa9	0.19584145
211	0xbdcb2943	-0.099199794
212	0x3e09f3fc	0.13471979
213	0x3bcffc09	0.0063471836
214	0x3d9a6da8	0.075404465
215	0xbd9fa2b3	-0.07794704
216	0x3d6e30fa	0.058152176
217	0xbe4bfacf	-0.19919895
218	0xbecf7b2d	-0.40523663
219	0xbb486e32	-0.003058326
220	0xbd101f56	-0.035186134
221	0x3e2f2e8e	0.17107603
222	0x3cf3500c	0.029701255
223	0xbee515b0	-0.4474311
224	0xbed104f8	-0.40824103
225	0xbe4a3255	-0.19745763
226	0xbcdc2762	-0.026874248
227	0x3e4df448	0.20112717
228	0xbeb7812d	-0.3584074
229	0x3dc84510	0.097787976
230	0xbeb505fa	-0.35356122
231	0xbcdee646	-0.027209412
232	0xbd1f72a5	-0.038927693
233	0x3eaa39b5	0.33247152
234	0x3e2a2a57	0.16617714
235	0x3e41ea98	0.18937147
236	0x3dc1c7c6	0.09461932
237	0xbe10de7b	-0.1414737
238	0xbedffc72	-0.43747288
239	0xbe46e9ad	-0.19425078
240	0x3d0334a2	0.032032616
241	0xbecb3958	-0.39692187
242	0xbeab9b78	-0.3351705
243	0xbd13f8bc	-0.036125883
244	0xbe91d5e1	-0.2848349
245	0x3d0ab21e	0.033861272
246	0x3ec2427e	0.37941355
247	0x3e6d0a7a	0.23148528
248	0x3e23375c	0.15939087
249	0xbc886db6	-0.016653877
250	0xbe949571	-0.29020265
251	0xbd22b478	-0.03972289
252	0x3e572b97	0.21012722
253	0x3d87bf1a	0.066282466
254	0x3ea99657	0.33122513
255	0xbf0b7501	-0.5447541

module.se1.fc1.bias f4 [16]
0	0x3d5214d6	0.051289402
1	0x3f4a8cf5	0.79121333
2	0x3d91fe49	0.07128579
3	0xbeeb1604	-0.45915234
4	0x3ddbf9f7	0.107410364
5	0x3efedab7	0.4977624
6	0x3ea37f3c	0.3193301
7	0xbda57896	-0.080796406
8	0xbc9a8cbb	-0.018865934
9	0x3ec6eeae	0.38853973
10	0xbe43f7ed	-0.19137545
11	0xbe4a392c	-0.19748372
12	0x3c29e6f1	0.010370002
13	0x3ed863fb	0.4226378
14	0x3f12b521	0.5730763
15	0x3e05e844	0.13076884

module.se1.fc2.weight f4 [32, 16, 1, 1]
0	0xbe8db3ab	-0.27676138
1	0xbe1ee336	-0.15516362
2	0x3dacfb91	0.0844642
3	0xbdffa1bd	-0.12482021
4	0x3ee7b2a8	0.4525349
5	0xbcdcd9db	-0.02695935
6	0x3e5f6a4c	0.21817893
7	0x3e6f8878	0.23391902
8	0xbd236aed	-0.039896894
9	0x3e960e78	0.29307914
10	0xbc97b2cd	-0.018517876
11	0x3b6e063e	0.0036319639
12	0xbc1838dc	-0.0092909
13	0xbebe22ae	-0.37135834
14	0x3ed1a19b	0.40943608
15	0x3e34bbd3	0.17649774
16	0x3d3b7675	0.045767266
17	0x3d2a8a1f	0.04163563
18	0x3ddf3041	0.108978756
19	0x3c64b421	0.013958962
20	0x3e94209f	0.28931138
21	0x3d14f051	0.036361996
22	0x3e2199b1	0.15781285
23	0xbda87b35	-0.08226625
24	0x3e862ac6	0.2620451
25	0xbd915a64	-0.07097319
26	0xbd991907	-0.07475477
27	0x3d6c96ca	0.05776099
28	0xbd735ad6	-0.0594128
29	0x3e8c38c1	0.2738705
30	0xbe32ab2c	-0.1744811
31	0xbea46096	-0.3210494
32	0xbf8412d7	-1.031825
33	0xbe6b7fb8	-0.2299794
34	0xbee6e7c8	-0.4509871
35	0xbf5f488d	-0.8722008
36	0xbe81e57f	-0.25370404
37	0xbe9ab895	-0.3021895
38	0x3db820dc	0.089906424
39	0xbd4020f5	-0.04690643
40	0xbdc4bcff	-0.09606361
41	0xbe75abd8	-0.23991334
42	0xbfeced71	-1.8509961
43	0xbf66e351	-0.9019061
44	0xbf565b78	-0.8373332
45	0x3f4d8247	0.8027691
46	0x3d3a2fb9	0.045455668
47	0xbf33d48f	-0.70246214
48	0xbdc5b9b1	-0.096545584
49	0xbe4973b2	-0.1967304
50	0xbc5a012f	-0.013305946
51	0x3cd3ecdc	0.02586978
52	0x3ea4b449	0.32168797
53	0x3cf81e28	0.030287817
54	0xbec94fd5	-0.3931872
55	0x3e28367e	0.16427037
56	0x3e8e9cf5	0.27854124
57	0x3c8030d0	0.015648276
58	0xbe215832	-0.157563
59	0xbce1c47c	-0.027559511
60	0x3de1ccd0	0.11025393
61	0xbe1f65d4	-0.15566188
62	0xbe2094df	-0.1568179
63	0x3d8d73e6	0.069068715
64	0xbe430701	-0.1904564
65	0xbd68cba5	-0.056834836
66	0xbe18aa4e	-0.14908716
67	0x3d5705d9	0.05249581
68	0x3e83ec21	0.2576609
69	0xbef792c5	-0.48354164
70	0xbe38a3f6	-0.18031296
71	0x3f05005a	0.5195366
72	0xbe2c8f65	-0.16851576
73	0x3e1d8fe4	0.15386921
74	0xbd4ea279	-0.050447915
75	0x3e6319b1	0.22177769
76	0xbebed7f1	-0.37274125
77	0xbf3c2926	-0.7350029
78	0xbe89454d	-0.26810685
79	0xbea35862	-0.31903368
80	0x3e20d6e6	0.15706977
81	0x3f361211	0.7112132
82	0xbe70cb55	-0.23515065
83	0x3ded9472	0.11600579
84	0x3e860c42	0.26181227
85	0x3e97abac	0.29623163
86	0x3eb2c680	0.34917068
87	0x3dbdcf62	0.09268071
88	0x3eae07a7	0.33990213
89	0x3f024e75	0.50900966
90	0x3df40bd8	0.119163215
91	0x3f18ab2d	0.59636194
92	0x3e199a9d	0.15000387
93	0x3e0bfdb4	0.13670999
94	0x3e41a6bc	0.1891126
95	0x3f06b444	0.52618814
96	0xbf272baf	-0.6530103
97	0xbee63b3b	-0.44967064
98	0x3d5bc6d0	0.0536564
99	0x3db61df8	0.08892435
100	0xbf091bcc	-0.5355804
101	0x3d4900ae	0.049072914
102	0xbe66245a	-0.22474805
103	0xbd542d60	-0.051801085
104	0xbebf0619	-0.3730934
105	0xbe88c950	-0.2671609
106	0xbe36e60c	-0.17861193
107	0xbe8e204f	-0.27759025
108	0xbf814cb0	-1.0101528
109	0x3f3ecfea	0.74536
110	0x3e9c220c	0.30494726
111	0xbf4d0766	-0.80089414
112	0x3cc9e4d0	0.02464524
113	0x3f03fdfc	0.51559424
114	0x3dea131b	0.11429425
115	0x3db34447	0.08753257
116	0x3e1ab2b3	0.15107231
117	0x3e8efd03	0.27927408
118	0xbd6baacc	-0.05753593
119	0x3e5930e2	0.21210054
120	0x3de5937d	0.11209772
121	0x3ec01eaf	0.3752341
122	0x3dc82e1c	0.0977442
123	0x3e6574d4	0.22407848
124	0xbc2d995e	-0.010595648
125	0xbeda0998	-0.42585444
126	0x3f0b2c7c	0.5436475
127	0x3ebc4150	0.3676858
128	0x3dfe76b5	0.12424985
129	0xbdaa8859	-0.083267875
130	0xbeec498f	-0.4614987
131	0x3ea592c3	0.32338533
132	0x3eaec327	0.34133264
133	0x3d88303f	0.06649827
134	0xbdd9b950	-0.10631049
135	0x3e522798	0.20522916
136	0x3d86cf0c	0.0658246
137	0x3e4be76b	0.19912498
138	0x3d46876d	0.048468996
139	0x3e2b5937	0.16733252
140	0xbe87fe95	-0.26561418
141	0xbecdf93f	-0.40229222
142	0xbdd0dc24	-0.101982385
143	0x3e2359bd	0.15952201
144	0x3c8cf742	0.017207745
145	0xbebe69f3	-0.37190208
146	0xbe2651d9	-0.1624216
147	0xbdc47fd2	-0.09594692
148	0x3e7b88e3	0.24563937
149	0x3d2af15d	0.04173409
150	0xbec380a0	-0.3818407
151	0x3e85b1cf	0.2611222
152	0x3e358c64	0.17729336
153	0x3da0a7f9	0.07844538
154	0x3d137a90	0.036005557
155	0x3d9e4d3f	0.07729577
156	0xbf19e10b	-0.60109013
157	0xbea50275	-0.32228437
158	0xbd0ad073	-0.0338902
159	0xbcdf74dc	-0.027277403
160	0x3e142042	0.1446543
161	0xbe4ad4ac	-0.1980769
162	0x3e6c3548	0.230672
163	0xb912fff8	-0.00014019001
164	0xbe2f5918	-0.1712383
165	0xbe92e2cd	-0.2868866
166	0x3e19a620	0.15004778
167	0xbe886fb0	-0.2664771
168	0x3ce26313	0.027635133
169	0xbc242bd9	-0.01002022
170	0xbe0bdfe8	-0.13659632
171	0x3f0528ef	0.52015585
172	0x3e23b323	0.15986304
173	0x3d4a40c5	0.049378175
174	0x3dae99f8	0.08525461
175	0xbef98409	-0.48733547
176	0x3d78bcf3	0.06072707
177	0x3f0d2ad6	0.5514349
178	0xbea2550f	-0.3170552
179	0x3ea5657a	0.32303983
180	0xbe880dc5	-0.26573005
181	0x3ecd82ca	0.40138847
182	0x3f2b5406	0.66925085
183	0x3b404dac	0.002934317
184	0x3db680ba	0.089112714
185	0x3d90cae8	0.07069951
186	0xbcfd2121	-0.030899586
187	0xbba999e3	-0.0051758154
188	0x3d9fd5cf	0.07804453
189	0xbd5e458f	-0.054265555
190	0x3efebd9c	0.49754035
191	0x3d889ca9	0.066705056
192	0x3d45cb47	0.048289564
193	0x3e1b0371	0.15138032
194	0xbdd510d4	-0.104036
195	0xbdd54649	-0.104137965
196	0xbdbd0ac3	-0.09230568
197	0xbe1e73c9	-0.15473856
198	0x3e8e5655	0.2780024
199	0xbe8f0c03	-0.27938852
200	0xbe5133c5	-0.20429905
201	0x3e50dd0b	0.20396821
202	0x3daef8dd	0.08543561
203	0x3d53c4c2	0.051701315
204	0x3e6d22d4	0.23157817
205	0xbe7ea678	-0.2486819
206	0x3e9424e0	0.28934383
207	0xbe7a7117	-0.24457203
208	0xbe3268a4	-0.1742273
209	0xbdbb4a8f	-0.0914508
210	0xbc3f0c82	-0.011660697
211	0x3e784ecb	0.24248807
212	0x3e69abad	0.22819395
213	0xbf18044d	-0.5938156
214	0xbe7815ec	-0.24227113
215	0x3e35ab6e	0.17741176
216	0xbdc5fa89	-0.096669264
217	0x3e5606e3	0.20901065
218	0xbeb9d5e1	-0.3629599
219	0x3ef92f16	0.48668736
220	0xbd6d5c7c	-0.057949528
221	0xbf60e4fe	-0.87849414
222	0xbd972d5a	-0.07381697
223	0xbdccbdcf	-0.099971406
224	0x3cdec885	0.027195225
225	0x3d9d390b	0.07676896
226	0x3e090468	0.13380587
227	0x3ef0f9a2	0.47065455
228	0xbb82983f	-0.0039854343
229	0xbe986c10	-0.29769945
230	0xbe1f0b7a	-0.15531722
231	0xbd36e5e3	-0.04465283
232	0xbe6b215f	-0.22961949
233	0x3e329c32	0.17442396
234	0x3d9f1e7d	0.07769487
235	0x3e278d7a	0.16362563
236	0xbdf45eb7	-0.11932128
237	0xbf3f6ab7	-0.7477221
238	0xbea98d09	-0.33115414
239	0xbb613d79	-0.0034368916
240	0xbdc31c81	-0.09526921
241	0x3f1ec84d	0.62024385
242	0xbc356b48	-0.011072941
243	0x3e033a74	0.12815267
244	0x3e4a2cdc	0.19743675
245	0x3da68084	0.08129981
246	0x3f1b8b15	0.607591
247	0x3f070992	0.5274898
248	0x3e16266b	0.14663093
249	0x3e9ae3e5	0.30251995
250	0x3edc0e1f	0.42979524
251	0x3f0369f1	0.5133353
252	0x3e9abb6a	0.3022111
253	0xbf3c1e0f	-0.73483366
254	0x3f305620	0.68881416
255	0x3ecffbd2	0.4062181

module.se1.fc2.bias f4 [32]
0	0x3eba3e3c	0.36375606
1	0xbe9431f0	-0.2894435
2	0x3daa99f0	0.083301425
3	0x3e983343	0.2972661
4	0xbe14dd2e	-0.14537498
5	0x3f5dd46e	0.86652267
6	0x3beacbab	0.0071653924
7	0x3ebfec0e	0.37484783
8	0x3dea9042	0.11453296
9	0xbdea3f1f	-0.11437821
10	0xbe348260	-0.17627859
11	0x3f001c9d	0.5004366
12	0x3f1b0b4e	0.60564125
13	0xbf023b1b	-0.5087144
14	0xbe858938	-0.26081252
15	0x3e74bfea	0.23901334
16	0xbedde53b	-0.4333895
17	0xbd91a6d5	-0.07111899
18	0x3e6c1393	0.23054342
19	0x3eab354f	0.3343911
20	0x3c84acec	0.016195737
21	0x3ef423a0	0.4768343
22	0xbe8b6e22	-0.27232462
23	0x3d730173	0.059327554
24	0x3f50a7b1	0.81505877
25	0x3f1c44e9	0.6104265
26	0xbb0617a2	-0.0020460864
27	0xbe0d7f24	-0.13818032
28	0xbe9040bd	-0.2817439
29	0xbe094b4d	-0.13407631
30	0xbebc3ff7	-0.3676755
31	0x3e84c46a	0.25931102

module.conv2.0.weight f4 [64, 32, 1, 1]
0	0x3e06633f	0.13123797
1	0xbe24c96d	-0.16092463
2	0x3e9c1275	0.30482832
3	0x3edf00af	0.4355521
4	0xbcf95eed	-0.030440772
5	0xbf08302a	-0.5319849
6	0x3d7a57ff	0.061119076
7	0xbe1703e2	-0.14747575
8	0x3eafc76c	0.34331834
9	0x3d7dbdfc	0.06194876
10	0xbc09fd95	-0.008422275
11	0x3e8528f6	0.26007813
12	0x3e9afda9	0.30271652
13	0x3e148c13	0.14506559
14	0xbdc37f44	-0.09545758
15	0x3dddec86	0.10836129
16	0x3d98e4b6	0.07465498
17	0x3d255e84	0.04037334
18	0xbdb18a38	-0.08668941
19	0x3d7092bd	0.05873369
20	0xbe7f7d9c	-0.2495026
21	0x3eb6da8a	0.35713607
22	0xbc4ce69a	-0.012506152
23	0xbf353fd6	-0.7080053
24	0xbe304c41	-0.17216589
25	0xbd6b80d9	-0.057495926
26	0x3e003c2c	0.12522954
27	0x3de2ef75	0.11080829
28	0xbccbfc1e	-0.024900492
29	0x3e9a5622	0.3014384
30	0x3e4d2a67	0.20035706
31	0x3ee8df91	0.45483068
32	0x3d151be8	0.036403567
33	0x3e419e88	0.18908131
34	0xbeda6436	-0.4265458
35	0xbefe24df	-0.49637505
36	0xbe425236	-0.18976673
37	0x3e57bf89	0.21069159
38	0x3d00e149	0.03146485
39	0x3e43b26d	0.19111033
40	0xbd368981	-0.044564728
41	0xbcc411a9	-0.023934202
42	0xbe044544	-0.12917048
43	0x3e8f49c0	0.27985954
44	0xbf05cee4	-0.52268815
45	0xbe93af1b	-0.28844532
46	0x3dceef2b	0.101042114
47	0xbc1ca292	-0.009560244
48	0xbe5124f2	-0.2042425
49	0xbeec72bb	-0.46181282
50	0x3d58804d	0.052856732
51	0xbdee488f	-0.11634933
52	0xbee880ef	-0.4541087
53	0xbeb266d4	-0.34844077
54	0xbcc032b9	-0.023461686
55	0xbe50796f	-0.20358823
56	0xbefb42b0	-0.49074316
57	0xbd291f51	-0.04128963
58	0xbdb58954	-0.08864084
59	0x3e1cc592	0.15309742
60	0x3decd843	0.11564686
61	0xbe8db7d5	-0.27679315
62	0xbea63996	-0.3246581
63	0xbea7f1fc	-0.32801807
64	0xbded9435	-0.11600534
65	0x3ce77d67	0.028258039
66	0xbe6cdaf9	-0.23130406
67	0xbdac8a4b	-0.08424815
68	0x3e9ec77d	0.31011572
69	0xbe87b31d	-0.2650384
70	0xbe325d0a	-0.17418304
71	0xbf548f8b	-0.8303153
72	0xbe8dd16d	-0.27698842
73	0x3d3d831c	0.046267614
74	0x3b921666	0.0044582365
75	0xbdb6f9dd	-0.089343764
76	0x3e0cf6f8	0.13766086
77	0x3e31f165	0.17377241
78	0x3e396403	0.18104558
79	0xbdfff420	-0.12497735
80	0xbe9cc20c	-0.30616796
81	0x3dd89d8c	0.10576925
82	0xbeecbd14	-0.46238005
83	0xbea5f8ae	-0.3241629
84	0x3e58bf1c	0.21166652
85	0x3e2de3fe	0.16981503
86	0xbe22cfb4	-0.15899545
87	0x3e8d4e0e	0.27598614
88	0xbdc3b590	-0.09556115
89	0xbec33e09	-0.38133267
90	0x3d937f7d	0.07202051
91	0x3d2078bd	0.039177645
92	0x3ec4a657	0.38408157
93	0xbe888422	-0.2666331
94	0xbe1c0842	-0.15237525
95	0xbf88c140	-1.0683975
96	0xbeb35d40	-0.35032082
97	0x3e497dc4	0.19676882
98	0xbf951b7a	-1.164901
99	0xbccbdc87	-0.02488543
100	0x3e81229a	0.2522171
101	0xbe253d5d	-0.1613669
102	0x3eb8a627	0.36064264
103	0x3e1ccc91	0.15312411
104	0x3e0c8d7d	0.13725848
105	0x3e913060	0.2835722
106	0x3ba79031	0.0051136245
107	0xbc806d07	-0.015676988
108	0xbdbd01c3	-0.09228852
109	0xbdf742cf	-0.120732896
110	0x3e697f00	0.22802353
111	0x3eec1f91	0.46117833
112	0x3e43e887	0.19131671
113	0xbf266d24	-0.65010285
114	0xbe35e41d	-0.177628
115	0x3ede4ae2	0.43416506
116	0x3e70e7d5	0.23525937
117	0xbdeab002	-0.11459352
118	0xbc0f1bbf	-0.0087346425
119	0x3e67f908	0.22653592
120	0x3dd493ef	0.103797786
121	0xbdc07fb6	-0.09399359
122	0xbd24cd42	-0.04023481
123	0xbe9401d5	-0.28907648
124	0x3de2bad5	0.11070792
125	0x3d6f911c	0.058487996
126	0x3e8d9cf8	0.2765882
127	0x3cd0172e	0.025401678
128	0x3e7322c0	0.23743725
129	0x3e120cf6	0.14262757
130	0xbed37c92	-0.41305977
131	0x3cd2a70b	0.025714418
132	0xbe84f283	-0.25966272
133	0xbbea5ca7	-0.0071521583
134	0xbebe2f56	-0.3714549
135	0xbf0486cd	-0.5176819
136	0xbeab555c	-0.33463562
137	0xbebe21dd	-0.3713521
138	0x3e586f13	0.21136121
139	0x3cc84ab7	0.02444969
140	0xbe899a60	-0.2687559
141	0x3e725c86	0.23668107
142	0xbecb64a8	-0.39725232
143	0xbd6b8334	-0.057498172
144	0xbeebb919	-0.46039656
145	0xbe8495b7	-0.25895473
146	0x3d8005ac	0.06251082
147	0x3ebdce8c	0.37071645
148	0xbf128c27	-0.57245106
149	0xbd347d8c	-0.044065043
150	0xbf10e8e9	-0.5660539
151	0xbe97c3f4	-0.29641688
152	0xbc39aeb1	-0.011333154
153	0xbe1682e2	-0.14698365
154	0x3dcd2950	0.10017645
155	0xbe7fcd4a	-0.24980655
156	0x3e15e8e7	0.14639626
157	0xbeb1c0ec	-0.347175
158	0xbdb5e8e0	-0.08882308
159	0x3e4be2f8	0.199108
160	0xbcc2a821	-0.02376181
161	0x3de173c9	0.110084124
162	0xbede126c	-0.4337343
163	0xbd03099c	-0.031991586
164	0xbe3d7e38	-0.1850518
165	0x3d9ed6d9	0.07755823
166	0x3cdf1beb	0.027234992
167	0xbdde82f0	-0.10864818
168	0x3e2f2028	0.1710211
169	0xbdfe3bd3	-0.12413754
170	0xbeb69f4b	-0.35668406
171	0xbe06f253	-0.13178377
172	0x3d359d1d	0.044339288
173	0xbf09cfee	-0.538329
174	0x3d925719	0.07145519
175	0x3ebfc6b1	0.37456277
176	0xbe833931	-0.2562957
177	0xbe865af3	-0.26241264
178	0xbe4e6a7c	-0.20157808
179	0xbe319807	-0.1734315
180	0xbe3b5ed8	-0.18297899
181	0x3bfcab86	0.007710877
182	0x3d8012ba	0.06253572
183	0x3d54351e	0.05180847
184	0xbed7f990	-0.4218259
185	0x3f3e9d07	0.74458355
186	0xbe3ecf43	-0.18633752
187	0xbee02e9a	-0.43785554
188	0xbee9fc84	-0.45700467
189	0xbe04703e	-0.12933442
190	0xbe905bd3	-0.28195056
191	0x3e1090d5	0.14117749
192	0x3da9c4a3	0.082894586
193	0x3e56adc1	0.2096472
194	0x3e7e7a95	0.24851449
195	0xbe9e4604	-0.30912793
196	0xbec94877	-0.393131
197	0xbe8ecb4b	-0.27889475
198	0x3e41351b	0.18867914
199	0x3c18d7e3	0.009328815
200	0xbe8e00b6	-0.27734917
201	0x3e8a202f	0.2697768
202	0xbd11a73e	-0.035559885
203	0xbf03a3ba	-0.514217
204	0xbf28a79c	-0.6588075
205	0xbdeba02f	-0.11505162
206	0x3e30a173	0.17249088
207	0xbe3fa4cc	-0.18715209
208	0xbc77c7e8	-0.015123345
209	0x3f06638e	0.5249566
210	0x3eced0bd	0.4039363
211	0xbe110819	-0.14163245
212	0x3ee6b287	0.4505808
213	0x3e36fd5d	0.17870088
214	0x3c29b0c7	0.010357088
215	0xbd5f5093	-0.0545202
216	0x3e7ca4ca	0.24672237
217	0x3d5ea7cb	0.05435924
218	0xbea16198	-0.3151977
219	0xbe199c01	-0.15000917
220	0xbe2493d3	-0.16072015
221	0x3bcf96da	0.0063351216
222	0x3db1f673	0.086895846
223	0x3de6ec2d	0.11275516
224	0xbc80b98f	-0.015713481
225	0xbe8ba1a7	-0.27271768
226	0x3e3c19e1	0.18369247
227	0x3ee58a9a	0.44832307
228	0xbd5835f1	-0.052785818
229	0x3e1a0fe4	0.15045124
230	0xbde912cf	-0.113805406
231	0x3cb7822c	0.022400938
232	0x3e501fd9	0.20324649
233	0xbd8d1bcb	-0.06890067
234	0x3e410cb9	0.1885251
235	0x3e8cb1e3	0.27479467
236	0x3e110fb1	0.14166142
237	0x3ded019a	0.11572571
238	0x3e8c18a1	0.2736254
239	0x3e5f6491	0.21815707
240	0xbe1b1db8	-0.15148056
241	0x3e924122	0.28565317
242	0xbe750654	-0.23928195
243	0x3d2fb61a	0.042898275
244	0xbd93df88	-0.072203696
245	0x3e4d8096	0.20068583
246	0xbe6d879e	-0.23196265
247	0xbd106eea	-0.035262026
248	0xbf81d959	-1.0144454
249	0x3e93b8ad	0.28851834
250	0x3e954bd9	0.2915943
251	0xbcbd868f	-0.023135452
252	0x3e273104	0.16327292
253	0x3e0b63ec	0.13612336
254	0x3e5e480d	0.21707173
255	0x3db36636	0.087597296

module.conv2.1.weight f4 [64]
0	0x3f6e69e8	0.9313035
1	0x3f7106cf	0.94151014
2	0x3fae17ef	1.3601054
3	0x3f3302e8	0.6992631
4	0x3eea8778	0.4580648
5	0x3f755dec	0.9584644
6	0x3f8e09e1	1.1096765
7	0x3f57eb56	0.8434347
8	0x3f3fccdd	0.7492197
9	0x3f5be95e	0.85902965
10	0x3f9d1de8	1.2274752
11	0x3f3f0c8e	0.7462853
12	0x3fb807dd	1.43774
13	0x3f571cee	0.8402852
14	0x3f69e98a	0.9137198
15	0x3f5bde4e	0.85886085
16	0x3f5a337e	0.8523482
17	0x3f8b537f	1.0884856
18	0x3f359d79	0.7094341
19	0x3f5a95d1	0.8538485
20	0x3f81450e	1.0099199
21	0x3f8bbf57	1.0917767
22	0x3f3a809d	0.728525
23	0x3f832b71	1.0247632
24	0x3f622783	0.8834154
25	0x3f303b79	0.6884075
26	0x3f3807df	0.7188701
27	0x3f55bb8c	0.834893
28	0x3f7e4cc9	0.99335915
29	0x3f4bd47e	0.7962111
30	0x3f468f55	0.7756246
31	0x3f8ccb95	1.0999628
32	0x3f92831c	1.1446261
33	0x3f69af69	0.9128328
34	0x3f96dc05	1.1785895
35	0x3f699d8c	0.9125602
36	0x3f4cef5f	0.8005275
37	0x3faf438f	1.3692492
38	0x3f42ed54	0.76143384
39	0x3f93a65e	1.1535146
40	0x3f367499	0.71271664
41	0x3fa41c17	1.2821072
42	0x3f74573b	0.95445603
43	0x3f7166cd	0.94297487
44	0x3f61a08b	0.88135594
45	0x3f5442d3	0.82914466
46	0x3f43904b	0.7639205
47	0x3f687bdb	0.9081399
48	0x3f46bbdc	0.776304
49	0x3f37ce46	0.71799123
50	0x3f60f28b	0.8787009
51	0x3f8a2b77	1.0794514
52	0x3f83c369	1.029401
53	0x3f7ba1fb	0.9829404
54	0x3f63fa28	0.89053583
55	0x3f919ae1	1.137539
56	0x3f2e9180	0.68190765
57	0x3f7329b1	0.9498549
58	0x3f817aef	1.0115641
59	0x3f6648e5	0.8995498
60	0x3f4c4ec6	0.798077
61	0x3f2c6d7e	0.6735457
62	0x3f4b2886	0.7935871
63	0x3f513729	0.8172479

module.conv2.1.bias f4 [64]
0	0x3e93875b	0.28814206
1	0xbe54089f	-0.20706414
2	0x3e923870	0.28558683
3	0xbe1a3e56	-0.15062842
4	0x3e4a80d7	0.19775711
5	0xbecd5910	-0.40107012
6	0x3d6361e6	0.055513285
7	0xbe9e250a	-0.30887634
8	0x3b80c158	0.0039292984
9	0x3dab1375	0.083533205
10	0xbf819e47	-1.0126427
11	0xbe481154	-0.1953786
12	0xbf37802a	-0.7167994
13	0xbe2d5582	-0.1692715
14	0xbf1e3dd0	-0.6181307
15	0xbcda6bf5	-0.026662806
16	0xbf0285b5	-0.5098527
17	0xbe866b7d	-0.26253882
18	0xbd0eeded	-0.034894872
19	0xbdae6766	-0.085158154
20	0xbddec133	-0.108766936
21	0xbf1f00d1	-0.6211062
22	0xbea00508	-0.3125384
23	0xbe9c3ec7	-0.30516645
24	0xbe82764e	-0.25480884
25	0x3e035cfb	0.12828438
26	0x3d96d5dc	0.07365009
27	0xbd125775	-0.035727937
28	0xbf423c04	-0.75872827
29	0xbe5c5cd1	-0.21519782
30	0xbd8d59e2	-0.069019094
31	0xbf7071ac	-0.9392345
32	0xbf05f093	-0.5232021
33	0xbbd773ec	-0.0065750983
34	0x3e64e676	0.22353539
35	0x3c0e61fe	0.008690355
36	0xbe21b77a	-0.15792647
37	0xbe0e27ca	-0.13882366
38	0xbf180b0a	-0.59391844
39	0xbf0544c0	-0.5205803
40	0xbd968ddd	-0.07351277
41	0xbd091b75	-0.03347345
42	0x3e04c514	0.12965804
43	0xbf61b465	-0.88165885
44	0x3e8394a8	0.25699353
45	0xbe271677	-0.16317163
46	0x3db01b51	0.0859896
47	0xbe93faf4	-0.289024
48	0xbe084ea6	-0.13311252
49	0xbcb0a325	-0.021562168
50	0x3dea41b7	0.11438315
51	0xbe90fa94	-0.28316176
52	0xbf887597	-1.0660886
53	0xbdf5f038	-0.12008709
54	0xbe80f13c	-0.25184047
55	0xbe43ca4d	-0.1912014
56	0xbe6b0fa6	-0.22955188
57	0xbf149677	-0.5804209
58	0x3eeebc37	0.46627972
59	0xbb942bd6	-0.004521827
60	0xbf0250a7	-0.50904316
61	0xbee330c9	-0.44373158
62	0xbe6c190b	-0.23056428
63	0xbe12d71e	-0.14339873

module.conv2.1.running_mean f4 [64]
0	0x3e8b8009	0.2724612
1	0xbf884cd7	-1.064845
2	0xbf267b60	-0.65032005
3	0xbb3ebf65	-0.002910578
4	0xbf521c02	-0.82073987
5	0xbe7e437c	-0.24830431
6	0xbd9a6ebf	-0.075406544
7	0x3e9215c9	0.28532246
8	0xbe49720f	-0.19672416
9	0xbf01f4ce	-0.5076417
10	0x3f201fb7	0.62548393
11	0x3ede0712	0.4336477
12	0x3f232c14	0.6373913
13	0xbd3476a9	-0.044058476
14	0x3ee88da0	0.4542055
15	0x3c4eb07d	0.01261532
16	0x3f6103bb	0.8789632
17	0x3e36a093	0.17834692
18	0x3eeb8d9d	0.4600648
19	0x3f0541db	0.5205361
20	0x3ee70307	0.45119497
21	0x3f1722dd	0.5903757
22	0xbeabfdfb	-0.3359221
23	0x3c194510	0.009354845
24	0x3e35504e	0.17706415
25	0x3d30ce06	0.04316523
26	0xbe608449	-0.21925463
27	0xbf5e81d4	-0.8691685
28	0x3f4f12fc	0.8088834
29	0x3e811699	0.25212553
30	0xbeb89fa3	-0.36059293
31	0x3efb6bc3	0.49105653
32	0x3f6bf485	0.9216998
33	0xbeb5b6f7	-0.35491154
34	0xbf9d01b6	-1.2266147
35	0xbf91d405	-1.1392828
36	0xbf187043	-0.595463
37	0xbdf75da2	-0.12078406
38	0x3efb8e6e	0.49132103
39	0xbed0816c	-0.4072374
40	0x3e939ed3	0.2883211
41	0xbec6d16f	-0.3883166
42	0xbf1801b2	-0.59377587
43	0x3f5a444b	0.85260457
44	0xbf279158	-0.6545615
45	0xbe3859f7	-0.18003069
46	0xbf049926	-0.51796186
47	0x3e02f3b1	0.12788273
48	0xbf160d4f	-0.5861406
49	0x3e3a575e	0.1819739
50	0xbf2d676e	-0.67735946
51	0xbdd2d920	-0.102953196
52	0x3f1fa0da	0.62354815
53	0xbe8673d2	-0.2626024
54	0xbede1046	-0.4337179
55	0xbef05c2c	-0.46945322
56	0x3e833a60	0.25630474
57	0xbebb8130	-0.36622
58	0xbf5ee1e7	-0.8706345
59	0xbeb9edec	-0.36314332
60	0x3f01a919	0.5064865
61	0x3f2fae48	0.6862531
62	0x3e86f059	0.26355246
63	0xbdde202d	-0.10845981

module.conv2.1.running_var f4 [64]
0	0x3e3423b9	0.17591752
1	0x3e84999e	0.2589845
2	0x3f44b0c7	0.7683224
3	0x3decfee8	0.11572057
4	0x3de211af	0.11038529
5	0x3e77697b	0.24161331
6	0x3f0ecc2d	0.557803
7	0x3ebeb476	0.37247056
8	0x3e061183	0.13092618
9	0x3e69127c	0.22760957
10	0x3ea927f9	0.3303831
11	0x3d8cf403	0.06882479
12	0x3f136940	0.57582474
13	0x3d91ca0a	0.07118614
14	0x3e1357c6	0.14388952
15	0x3eb06a17	0.3445594
16	0x3e93f387	0.28896734
17	0x3f0161f3	0.50540084
18	0x3e168fcf	0.14703296
19	0x3db7a4e0	0.08966994
20	0x3e711f33	0.23547058
21	0x3f199dc2	0.60006344
22	0x3e3c3611	0.1838
23	0x3e596850	0.21231198
24	0x3ddc7f84	0.10766509
25	0x3dc9a36b	0.09845623
26	0x3e29acb8	0.16569793
27	0x3eab25eb	0.33427367
28	0x3ef9ec45	0.48813072
29	0x3e0b7e77	0.13622461
30	0x3e14b0dc	0.14520591
31	0x3f3a7574	0.7283547
32	0x3ed156f4	0.40886652
33	0x3e1fe63b	0.1561517
34	0x3f380de5	0.718962
35	0x3ef821aa	0.48463184
36	0x3e65d6af	0.22445177
37	0x3ec34d01	0.38144687
38	0x3eba3f80	0.36376572
39	0x3e6089e7	0.21927606
40	0x3e11f7b6	0.1425465
41	0x3f11159d	0.56673604
42	0x3eca964d	0.39567795
43	0x3e80f598	0.25187373
44	0x3e6546a2	0.22390226
45	0x3e84b987	0.25922796
46	0x3e2ce801	0.16885377
47	0x3e93a1e7	0.2883446
48	0x3e27764c	0.1635372
49	0x3d99b2c8	0.07504803
50	0x3e3d9965	0.18515547
51	0x3e8f1f41	0.27953532
52	0x3f2a48ce	0.6651734
53	0x3eb6672a	0.35625583
54	0x3f44ee6d	0.7692631
55	0x3f10e889	0.5660482
56	0x3dd1daa1	0.10246778
57	0x3eb74ac1	0.3579922
58	0x3ece4393	0.4028593
59	0x3ea452db	0.32094464
60	0x3e87714e	0.26453632
61	0x3ddd94e0	0.10819411
62	0x3d94357f	0.07236766
63	0x3e0c227c	0.1368503

module.se2.fc1.weight f4 [16, 64, 1, 1]
0	0x3ccb81fa	0.024842251
1	0xbd101261	-0.035173777
2	0x3e9ded45	0.30845085
3	0x3c9161a2	0.01774675
4	0x3d977c87	0.073967986
5	0xbe1c545c	-0.15266556
6	0x3ed279e0	0.41108608
7	0xbcf24c1c	-0.029577307
8	0xbe94252d	-0.28934613
9	0x3e6970d8	0.22796953
10	0xbe51060a	-0.2041246
11	0x3dc41770	0.09574783
12	0xbe59db52	-0.2127507
13	0x3d495371	0.04915184
14	0xbe70dac5	-0.23520954
15	0xb9e8ae43	-0.00044380323
16	0xbe8d005c	-0.27539337
17	0xbec3aba0	-0.38216877
18	0x3e078fc1	0.13238432
19	0xbeae43e5	-0.34036174
20	0x3e3b06d8	0.1826433
21	0xbe97dad6	-0.29659146
22	0xbca1afe4	-0.019737191
23	0xbeae2f31	-0.3402038
24	0xbdfe1cf8	-0.12407869
25	0x3eafd1ce	0.34339756
26	0x3e57ba7d	0.21067233
27	0x3d3db3e3	0.04631413
28	0xbf14a48d	-0.58063585
29	0x3d69f15d	0.057114948
30	0xbe7ff155	-0.24994405
31	0xbec953e8	-0.39321828
32	0xbe0042eb	-0.12525527
33	0x3b1ef7a7	0.00242565
34	0x3e876445	0.26443687
35	0xbde37757	-0.11106747
36	0x3e6fb84e	0.2341015
37	0xbeafb3a6	-0.34316748
38	0x3d401c63	0.04690207
39	0xbe36961d	-0.17830701
40	0xbe9f14f0	-0.31070662
41	0x3e979f50	0.29613733
42	0xbe9bcf68	-0.30431676
43	0x3c9d4b0f	0.01920083
44	0x3e054fff	0.13018797
45	0xbe94f0ce	-0.2908997
46	0x3e077a59	0.13230266
47	0xbe186396	-0.14881739
48	0xbd8b9d17	-0.06817072
49	0xbe27026e	-0.1630952
50	0xbdcf8c22	-0.1013415
51	0xbe77ef1f	-0.24212311
52	0xbe9b3bc7	-0.30319044
53	0x3ddfc400	0.10926056
54	0x3e8bcda8	0.2730534
55	0x3ba7c6c4	0.0051201303
56	0xbd93bc89	-0.072136946
57	0xbeef5617	-0.4674537
58	0xbd968494	-0.07349506
59	0x3f0e96b8	0.5569873
60	0xbebdfe6b	-0.37108168
61	0x3da58997	0.08082884
62	0xbf2e681b	-0.681276
63	0x3e2fa08d	0.17151089
64	0xbb806915	-0.0039187768
65	0x3c2c0da6	0.010501301
66	0x3ecbd4cc	0.3981079
67	0x3b33a95f	0.0027414185
68	0xbe52cf18	-0.20586812
69	0x3ddaeca0	0.10689664
70	0xbcfe9454	-0.031076588
71	0x3e2cf904	0.16891867
72	0x3ec27f5e	0.37987798
73	0x3f13a699	0.5767608
74	0x3e876472	0.2644382
75	0x3ed48433	0.4150711
76	0x3e8db822	0.27679545
77	0x3d3637ff	0.044486996
78	0xbdf3bbc5	-0.119010486
79	0x3f0d7e5f	0.5527095
80	0x3e8c9a40	0.27461433
81	0x3ea4304d	0.320681
82	0x3ddcbb2a	0.10777886
83	0xbe4a2024	-0.19738823
84	0xbe8fbd8c	-0.280743
85	0x3c78d842	0.015188279
86	0xbe67fa1f	-0.22654007
87	0xbde8d9f9	-0.113697
88	0x3d28ec52	0.041240998
89	0x3d60e152	0.054902382
90	0x3e4321e9	0.19055904
91	0xbe4862da	-0.19568959
92	0xbd80d9ab	-0.06291517
93	0xbddb6550	-0.10712683
94	0xbd67cc7c	-0.056591496
95	0x3dbf11ba	0.09329553
96	0x3e9fe5c0	0.31229973
97	0xbebd8f84	-0.37023556
98	0x3e5bfca7	0.21483098
99	0xbccc1f2c	-0.024917208
100	0x3f02d240	0.51102066
101	0x3d4bcf48	0.049758226
102	0x3ea895d0	0.32926798
103	0x3d1417d5	0.03615554
104	0x3d7250b2	0.05915899
105	0xbb9911bc	-0.0046713036
106	0xbd38f350	-0.045153916
107	0x3e4837b9	0.19552507
108	0xbcfddb3d	-0.03098833
109	0xbe0e54e6	-0.13899574
110	0x3c9f94a5	0.019480059
111	0x3d543627	0.051809456
112	0xbdce14f1	-0.10062588
113	0xbd1b270b	-0.03787903
114	0x3f02e7a5	0.5113471
115	0x3d351f90	0.044219553
116	0x3ecd3e7f	0.40086743
117	0x3dca0554	0.098642975
118	0xbe1817fc	-0.148529
119	0xbe0507e5	-0.12991293
120	0xbd9d64c9	-0.07685239
121	0x3eb254a3	0.34830198
122	0x3e78a7ff	0.24282835
123	0x3e155059	0.14581431
124	0xbd7777e2	-0.060417064
125	0xbe146543	-0.14491753
126	0xbadb7309	-0.0016742657
127	0x3de84bab	0.113425575
128	0x3e979a37	0.29609844
129	0x3e610101	0.21973039
130	0xbe9f6383	-0.3113061
131	0xbde35c0c	-0.11101541
132	0xbe89c46b	-0.26907668
133	0xbd8121fb	-0.063053094
134	0x3d8973a7	0.06711512
135	0x3f123b5a	0.57121813
136	0x3da12fe4	0.078704625
137	0x3e568360	0.20948553
138	0xbe9ac2c3	-0.30226716
139	0xbd8230cc	-0.063569635
140	0xbb7fc980	-0.0039030015
141	0xbe2559d7	-0.16147552
142	0xbe90b137	-0.28260204
143	0xbe87ab98	-0.26498103
144	0xbde611f5	-0.11233894
145	0xbd3247ef	-0.043525632
146	0x3ec80754	0.3906809
147	0xbe00b27d	-0.12568088
148	0xbe03b2e6	-0.12861213
149	0x3d006622	0.0313474
150	0xbd405d81	-0.046964172
151	0x3e32672e	0.17422172
152	0xbc08958e	-0.008336438
153	0x3dca09b1	0.0986513
154	0xbcd2a0c2	-0.02571142
155	0x3e375ee9	0.17907299
156	0xbee24c37	-0.44198772
157	0xbd61cfb3	-0.055129718
158	0x3eae4d76	0.34043473
159	0xbdf251d2	-0.11832012
160	0xbe675f3b	-0.22594921
161	0xbe07893c	-0.13235945
162	0xbeb3dfe2	-0.35131747
163	0x3de42b2e	0.11141048
164	0xbdee2d3a	-0.1162972
165	0x3f095b28	0.5365472
166	0xbe1bf6f8	-0.1523093
167	0x3e83a558	0.25712085
168	0x3e44dfdb	0.19226019
169	0x3ed94c24	0.42440903
170	0xbd61cb83	-0.055125725
171	0xbf1122cb	-0.56693715
172	0x3e54895e	0.20755526
173	0x3e4204b0	0.189471
174	0x3eb1c129	0.34717682
175	0x3e451f4f	0.19250225
176	0x3dde07d3	0.10841336
177	0x3c1208f3	0.0089132665
178	0xbe6f85a8	-0.2339083
179	0x3e664228	0.22486174
180	0xbe5cdfbd	-0.21569724
181	0xbceb2d97	-0.028708262
182	0xbc22914d	-0.009922338
183	0x3e93e560	0.28885937
184	0xbd9036a2	-0.070416704
185	0xbd4774f4	-0.04869552
186	0x3e86d564	0.2633468
187	0x3d9a6aec	0.07539925
188	0xbe4cb616	-0.19991335
189	0x3e1a94b3	0.15095787
190	0x3d9d23f6	0.07672875
191	0xbe2c3040	-0.16815281
192	0x3e8541d3	0.26026782
193	0xbf04949c	-0.5178926
194	0x3e435422	0.19075063
195	0xbe723020	-0.2365117
196	0xbe1ef234	-0.1552208
197	0x3d9f041d	0.077644564
198	0x3ead5c0f	0.33859298
199	0x3de5a492	0.1121303
200	0xbd076bbd	-0.03306173
201	0x3de7e60d	0.113231756
202	0xbfd9d465	-1.7017943
203	0xbc456d7b	-0.012050028
204	0xc01e4f3f	-2.4735868
205	0xbe0f5e8c	-0.1400091
206	0xbf095aea	-0.5365435
207	0xbdc181a7	-0.09448557
208	0xbdae2a37	-0.085041456
209	0xc011a77c	-2.2758474
210	0x3e0186aa	0.12649027
211	0xbec25310	-0.37953997
212	0xbeab100e	-0.33410686
213	0xbd89150e	-0.06693469
214	0xbe69d157	-0.22833763
215	0xbf20fb3d	-0.6288336
216	0x3d20c9f0	0.039255083
217	0x3e0f5441	0.13996984
218	0xbdd2817c	-0.102786034
219	0x3d203b16	0.03911885
220	0x3d970996	0.07374875
221	0xbcbd13d6	-0.023080748
222	0xbe59c7ce	-0.21267626
223	0xbebb9c62	-0.36642748
224	0xbd3379c6	-0.043817304
225	0x3ce4f56a	0.027949054
226	0x3ec97066	0.39343566
227	0xbce4b035	-0.027916053
228	0x3da55d44	0.0807443
229	0xbf213784	-0.62975335
230	0xbd9a4537	-0.07532733
231	0xbc53e75e	-0.01293358
232	0xbd96fe34	-0.07372704
233	0xbe315316	-0.17316851
234	0xbd5715f6	-0.052511178
235	0xbf13f0c7	-0.5778927
236	0x3d658421	0.05603421
237	0x3e0bc285	0.13648422
238	0xbd7eeeb0	-0.06223935
239	0xbf90e1c4	-1.1318898
240	0xbd21da8f	-0.039515074
241	0xbe6e52df	-0.232738
242	0x3cde413d	0.027130717
243	0xbe4424e2	-0.19154695
244	0xbfbc3534	-1.4703736
245	0x3e86897b	0.26276764
246	0x3e67f113	0.22650556
247	0xbdff8aa4	-0.124776155
248	0xbdf13fcf	-0.11779749
249	0xbf8ffda4	-1.124928
250	0xbf650e5a	-0.89475024
251	0x3e23b4ee	0.15986988
252	0xbe7abaf6	-0.24485382
253	0x3d36c21a	0.044618703
254	0xbf2c62ab	-0.67338055
255	0xbeab6a7d	-0.33479682

module.se2.fc1.bias f4 [16]
0	0x3dbe5a92	0.09294619
1	0x3ca84caa	0.020544369
2	0x3e138f47	0.14410125
3	0xbe549e5e	-0.20763537
4	0x3d393977	0.04522082
5	0xbe47b4e9	-0.19502605
6	0x3e0cf644	0.13765818
7	0xbcfb847c	-0.030702822
8	0x3d85f0fc	0.06540105
9	0x3d8032ef	0.06259715
10	0x3ddc17c3	0.1074672
11	0xbd97b311	-0.07407201
12	0xbdda36bb	-0.1065497
13	0xbe2136b4	-0.15743524
14	0xbc834ba3	-0.016027277
15	0x3d37704d	0.044784833
